experiments/BiDirectional_MD/2w6zlo2p/checkpoints/epoch=2.ckpt (torch, 77349 bytes, 30 tensors)

exp_avg f4 [80, 4]
00000000: 1c46 89b8 fd68 0538 955f 9838 5bf3 8438
00000010: a4ae a2b7 94aa edb3 518b 5937 b1fc 93b6
00000020: e504 ffb6 38a3 00b8 07f6 2938 8cb6 ef37
00000030: a88f 4138 8602 6c37 6359 bdb6 ce19 6837
00000040: 6c58 b1b7 e0cd 41b7 4b99 2638 aa7d 7337
00000050: 71e6 1eb8 4c00 0c38 ed63 0238 5607 3fb8
00000060: 4ef5 c037 336d 2e38 face 1338 52c3 d4b7
00000070: 4af6 5fb8 981b 2ab7 9b29 a138 dc7a 1e38
00000080: 36b3 3e37 53d9 ceb7 e42e 7cb6 de4f dab6
00000090: a8b9 82b7 d9ba 7d37 6512 05b7 012d e0b7
000000a0: 967b 0339 46d0 77b7 5db6 0eb9 e98a 29b8
000000b0: 0856 eab7 d76d d537 c408 c436 4783 74b6
000000c0: bdda 4d37 ee6e 4a38 097a 0ab8 5721 2cb8
000000d0: f706 9bb8 8b2e 6137 e279 9838 bc71 0738
000000e0: 9905 7a34 c45b f3b5 4713 08b7 d4de bbb7
000000f0: be63 ff36 bb80 a037 56f7 00b8 b0c7 12b8
00000100: fdc6 2138 3b68 2337 eec6 7eb7 8697 eab7
00000110: a244 0236 187e c237 c958 2638 2852 ba37
00000120: a9e4 adb8 3b3e 2438 5674 0c38 79b5 b538
00000130: 838c bdb5 2bd1 9537 72db 9736 47a2 6c37
00000140: 07c1 aeb7 a03d ac37 735f 1f38 e7e7 a7b6
00000150: 28fa 99b7 a0d5 96b7 c36c d637 a546 0b38
00000160: 1e3f d9b7 cff9 c9b7 eb78 1a37 c43e 9e36
00000170: 0f20 0538 aaee 99b7 07f3 2cb7 510d 2538
00000180: 9106 a3b7 2813 ccb7 f39f 9b38 4175 8338
00000190: a8b8 2cb7 80e5 0f37 c0ae 1538 b2c0 b036
000001a0: 522d bb37 9f2c 3b38 caa7 a637 d605 22b8
000001b0: 530d c2b7 8b31 7fb8 05da c938 85fa ee37
000001c0: 195d 2937 8ef1 84b8 7d31 d537 32d4 9a37
000001d0: 4866 0bb7 fc67 83b7 b953 8937 117f 5db7
000001e0: 8b07 9f38 d63a e0b7 cb49 1eb9 8262 34b7
000001f0: f93e f2b7 bf28 e837 cee1 2f37 d4d5 16b8
00000200: 1892 72b7 f156 c437 0a4e 11b7 75e8 9bb7
00000210: 1bde 54b8 f6eb 0038 b94b 8e38 a4b9 9437
00000220: e4a4 19b6 43ad f4b6 7351 78b6 21ed b8b7
00000230: 74cb 9a37 2633 1337 1379 f9b7 4188 49b8
00000240: 5a9f ad37 646b e0b6 0c6c 0db7 eb31 a7b7
00000250: d24d c636 adc4 ee37 5523 0638 a5a0 7e37
00000260: 5f2b aeb7 40a0 de37 073d 9a37 2866 9738
00000270: a95e 84b6 e3ce 2e36 c53e 9936 80c1 a337
00000280: e275 0fba 185a 8c39 126c b139 b362 d839
00000290: 5af9 f6b8 af72 33b8 4b64 1737 8ee1 b2b8
000002a0: bde3 3939 5ffe 5739 ba6b 3939 b15e 0439
000002b0: 0ad7 f739 0af5 2639 491b e2b7 09ec 2ab9
000002c0: 1816 6339 4ba4 1eb9 fd79 98b8 5ede 9a38
000002d0: 3df3 40b7 c4f4 64b8 b402 f838 1fdf 2539
000002e0: d1a2 14b9 a0bf b2b9 3f6f fc38 05d1 8838
000002f0: b357 1139 c150 a7b9 b1b8 1b39 0e6a 5137
00000300: 7a21 b3b9 9f4c e238 facb 07b8 ab45 66b9
00000310: 888b 1538 e5a2 a2b9 e07f e5b8 cfbc 9a39
00000320: 1c0b 0eba 2efa a03a 877a bdb9 7db6 fab9
00000330: 61b9 7f39 19e6 91b9 08af 4d39 7697 2437
00000340: 30b8 4739 8294 10b9 6420 92b9 2173 f9b9
00000350: b78e f839 1be9 1b38 6854 a4b8 30f5 17b9
00000360: fa2f 37b9 ac99 2e38 4cd0 ff38 2e25 4838
00000370: 4ef5 0338 1f38 b438 296d 0cb9 d99e 1ab9
00000380: 6e69 69b9 bf23 fd38 ac15 4338 2a17 8bb7
00000390: 1380 d037 ca9a 2e37 c7ce 03b9 1611 1938
000003a0: 9694 6dba 34f2 9fb9 5d84 9f38 b396 61b9
000003b0: 7371 f638 cb1f 9a38 1f9a 4fb8 5b4f f837
000003c0: edb5 dfb7 33e9 0b38 ef71 6938 4425 a537
000003d0: d68f afb6 015c a037 804e af37 d6ac 03b5
000003e0: 6ccb b0b7 f101 23b8 4055 6d38 1610 4538
000003f0: 047d 1638 fdf9 ff36 e28f f2b6 539b 5d37
-6.545728e-05 3.180745e-05 7.265728e-05 6.339579e-05 -1.9393228e-05 -1.10672005e-07 1.2966645e-05 -4.4103585e-06
-7.600162e-06 -3.0669587e-05 4.052187e-05 2.8576025e-05 4.6148576e-05 1.4067284e-05 -5.643045e-06 1.3834286e-05
-2.1141219e-05 -1.155163e-05 3.972025e-05 1.4513187e-05 -3.788475e-05 3.3378878e-05 3.108748e-05 -4.554478e-05
2.3002412e-05 4.1586532e-05 3.5240293e-05 -2.5363322e-05 -5.3396718e-05 -1.0139214e-05 7.684828e-05 3.7784557e-05
1.1366608e-05 -2.4658313e-05 -3.757822e-06 -6.506204e-06 -1.558366e-05 1.5123479e-05 -7.931701e-06 -2.6723837e-05
0.00012539173 -1.477084e-05 -0.00013610111 -4.042211e-05 -2.7935035e-05 2.5442727e-05 5.8422756e-06 -3.6435247e-06
1.2269881e-05 4.8263864e-05 -3.3015418e-05 -4.1039046e-05 -7.392273e-05 1.3421882e-05 7.270627e-05 3.229243e-05
2.3285101e-07 -1.8131618e-06 -8.11072e-06 -2.23959e-05 7.6112037e-06 1.9133431e-05 -3.0747928e-05 -3.4995086e-05
3.8570714e-05 9.739825e-06 -1.5185897e-05 -2.7965532e-05 1.941146e-06 2.318532e-05 3.966017e-05 2.2211185e-05
-8.291874e-05 3.9158604e-05 3.3486947e-05 8.6645545e-05 -1.4122492e-06 1.7859586e-05 4.5256975e-06 1.4104479e-05
-2.0832302e-05 2.0532694e-05 3.7997448e-05 -5.003985e-06 -1.835551e-05 -1.798087e-05 2.5561434e-05 3.3205975e-05
-2.5897807e-05 -2.4077393e-05 9.207269e-06 4.716074e-06 3.1739528e-05 -1.8350158e-05 -1.0308583e-05 3.9351467e-05
-1.9434172e-05 -2.4327615e-05 7.420769e-05 6.268407e-05 -1.02949925e-05 8.576899e-06 3.5687117e-05 5.2676414e-06
2.2313241e-05 4.462583e-05 1.9866875e-05 -3.8629245e-05 -2.3132807e-05 -6.0842878e-05 9.625036e-05 2.8488468e-05
1.0094861e-05 -6.3392436e-05 2.5414623e-05 1.8457042e-05 -8.30886e-06 -1.5664838e-05 1.6370659e-05 -1.3202211e-05
7.583116e-05 -2.6730278e-05 -0.00015095544 -1.0751772e-05 -2.8877972e-05 2.7675529e-05 1.0483387e-05 -3.596193e-05
-1.4458339e-05 2.3405506e-05 -8.660843e-06 -1.8585686e-05 -5.075159e-05 3.0737334e-05 6.785192e-05 1.772942e-05
-2.2894756e-06 -7.291937e-06 -3.700229e-06 -2.2044931e-05 1.845297e-05 8.773792e-06 -2.9739493e-05 -4.804903e-05
2.0697411e-05 -6.688222e-06 -8.4294115e-06 -1.9931196e-05 5.9099193e-06 2.8463395e-05 3.1980995e-05 1.5176983e-05
-2.0762613e-05 2.6539085e-05 1.8386649e-05 7.219269e-05 -3.9449264e-06 2.6048444e-06 4.5670627e-06 1.952122e-05
-0.0005472583 0.00026770006 0.0003384059 0.00041272267 -0.000117766394 -4.2783733e-05 9.023653e-06 -8.529714e-05
0.00017727814 0.00020598758 0.00017683106 0.00012623776 0.00047271728 0.00015922278 -2.6954005e-05 -0.00016300393
0.00021656638 -0.00015129258 -7.270647e-05 7.384711e-05 -1.1500725e-05 -5.458739e-05 0.00011826065 0.00015818745
-0.00014175034 -0.00034093577 0.000120370176 6.523918e-05 0.00013860948 -0.00031912889 0.00014850755 1.24820635e-05
-0.00034166483 0.000107907916 -3.2376476e-05 -0.00021960463 3.5654317e-05 -0.00031020414 -0.000109433895 0.00029513842
-0.00054185255 0.0012281591 -0.0003614018 -0.0004781968 0.00024387754 -0.0002782799 0.00019615528 9.8104265e-06
0.00019046734 -0.00013788234 -0.00027871423 -0.0004757876 0.00047408577 3.7171976e-05 -7.835851e-05 -0.00014491822
-0.00017470113 4.162795e-05 0.00012198146 4.7718342e-05 3.146129e-05 8.593522e-05 -0.00013392106 -0.0001474576
-0.00022259887 0.00012070638 4.6511806e-05 -1.6580878e-05 2.4855171e-05 1.0407248e-05 -0.00012570164 3.6493955e-05
-0.00090629735 -0.000305073 7.6063654e-05 -0.00021513812 0.00011751326 7.349214e-05 -4.9496182e-05 2.9600857e-05
-2.6668387e-05 3.3357366e-05 5.5657638e-05 1.9686886e-05 -5.232151e-06 1.9116329e-05 2.089818e-05 -4.905281e-07
-2.107556e-05 -3.8864036e-05 5.65846e-05 4.698344e-05 3.5879217e-05 7.6286947e-06 -7.228912e-06 1.3208791e-05

exp_avg_sq f4 [80, 4]
00000000: 568c e932 90f7 b632 6a7f 0c34 7dfa 7834
00000010: a32e dc30 f7a6 9930 c6b7 8630 d5fe 1431
00000020: c487 3c32 0ee2 2433 f577 c031 910f c531
00000030: eba5 e732 7d5c 2a33 0f5a ce31 7c4c 1233
00000040: 8b26 bf31 e92f 3432 e5d5 e031 af0b b031
00000050: a1ec 1633 bd20 aa32 34d2 9432 1089 2f32
00000060: fd0f 0032 a88d 3932 4fc6 8132 4ed5 de32
00000070: ecb5 3a33 8b0e e633 aa19 0833 a388 9133
00000080: 304f 0232 fd59 1f32 8b97 4d31 364a c831
00000090: 6ba0 0032 2453 5632 5b41 1732 4496 3c32
000000a0: 19e5 0e35 9bee ed33 bb40 0b34 843f 9333
000000b0: cb07 8133 0e44 a132 cb87 6133 ccc7 d133
000000c0: b410 0732 3cf4 cf32 b8d0 d231 3d00 ec32
000000d0: ed15 7633 5736 8a32 1772 2633 c2ea 8132
000000e0: 8856 ed30 b79c 3231 bdd1 0b31 675a 8531
000000f0: 601e 8431 a22e b731 dc34 9a31 4fad 2831
00000100: af36 1233 149e c532 e93a 8732 1ac2 0632
00000110: 381d 6332 63ff c231 1c3a 3933 74be b232
00000120: 4579 ca33 c6e8 0e33 442f 3b33 f1fd ef32
00000130: 4af0 4c31 c3ef be31 f45e cf31 8636 1732
00000140: a4b1 ff31 8456 3f32 74e3 f933 e93d 4434
00000150: d1e2 e930 d4be bb30 f06e b930 8660 5d31
00000160: 0e75 fd31 d5a3 be32 8a35 5331 6c5f 9f31
00000170: 0a79 3033 8821 4333 5676 6532 c059 6833
00000180: f90c 1132 4af3 6432 ef05 4a32 33a9 c732
00000190: a7c4 2832 9bcd 5532 2bc7 0d32 9c24 f431
000001a0: c8d0 ab32 b516 2d32 40b8 9832 04a3 3a33
000001b0: 1cd2 a132 54f3 8133 badc 1633 e75a 2d33
000001c0: c59c 4532 c539 a632 8aff 7032 450d 5733
000001d0: db1e e231 28ed 3432 b4a4 4e32 c33d 8f32
000001e0: 2781 b434 7f51 a333 2961 ad34 2b67 1734
000001f0: 1d53 fc32 7382 6e32 5924 7333 02c4 e532
00000200: eade 1a32 3c7d e432 7203 6332 83ce 7033
00000210: c408 6733 a416 9232 3b03 8533 1547 2f33
00000220: df89 0131 89c1 2731 d1ed 0d31 b3df c131
00000230: dc2d 8031 cfe2 c731 f448 5a31 686a 3c31
00000240: ee04 b932 b455 ac32 5054 5232 e769 f731
00000250: f854 4f32 8793 a231 130c 3533 a038 8632
00000260: 8db7 5c33 0468 1533 fe33 e632 1507 7c32
00000270: 999a 0231 17f7 a931 21d0 2532 e480 6932
00000280: 8571 4736 a500 7135 b443 6836 1016 0136
00000290: 62bf 9c34 9da9 b034 0f3a 5634 fc9a 8935
000002a0: 0e08 c334 cfed 6b34 64b5 4e34 a752 8134
000002b0: 5393 bf36 76be ed35 d536 a235 db4e d035
000002c0: 3b5e a135 8b90 8734 bfc8 bb35 3f6b a835
000002d0: e140 0f35 cf64 5535 fb65 5334 0958 de34
000002e0: 4558 ae35 ceb2 4a35 63a1 6935 4626 c835
000002f0: 37ec 6135 0755 5136 e3b3 4d36 5254 3236
00000300: 18c2 e635 3f47 a635 3586 cb35 d59d 2836
00000310: f843 b335 2ab7 a835 998e a334 89a2 5a35
00000320: d8fa 8a37 c1ae 4737 7162 a036 4ead 0d37
00000330: 7191 8636 aa5c 1a37 865a 8636 6078 cd36
00000340: 0ce1 0136 8f66 3335 0c7d b235 6ba5 bb35
00000350: 0419 c135 1961 2035 6546 c134 5684 5934
00000360: b3df 9d34 cffc e933 9be8 d334 5dd9 0435
00000370: 1589 3733 f9d8 2d34 a452 ea33 ab95 6133
00000380: 8b14 5035 1afb 6c34 a214 a534 ef77 3b34
00000390: ae33 8434 9c02 2934 879b 8b33 9593 2d34
000003a0: be04 6436 3c16 5a36 33e2 3135 7a59 e335
000003b0: 1cf0 2434 11ea cb33 62a2 c933 e4fe be33
000003c0: e085 fa31 062a 5a32 75ea 0434 0f07 8134
000003d0: 12cc 6831 537a 2e31 c479 d231 be76 0533
000003e0: 79f8 c532 a069 9933 f5a3 0b32 da9a bb32
000003f0: f032 2232 6b98 4632 ea5d ed30 bdb5 8632
2.7188587e-08 2.1300167e-08 1.3084869e-07 2.3187927e-07 1.6020362e-09 1.1179669e-09 9.802015e-10 2.168169e-09
1.097391e-08 3.838982e-08 5.601573e-09 5.7352243e-09 2.696739e-08 3.9665327e-08 6.0056276e-09 3.4062836e-08
5.5632134e-09 1.04882725e-08 6.543575e-09 5.1236024e-09 3.513981e-08 1.9805492e-08 1.7325057e-08 1.0217505e-08
7.454216e-09 1.0800626e-08 1.5107757e-08 2.5941201e-08 4.3471957e-08 1.0712855e-07 3.168831e-08 6.776943e-08
7.585001e-09 9.275479e-09 2.9917568e-09 5.829203e-09 7.487055e-09 1.2475343e-08 8.804217e-09 1.0977207e-08
5.3232503e-07 1.10795746e-07 1.2968933e-07 6.856774e-08 6.008448e-08 1.8773815e-08 5.2510398e-08 9.768664e-08
7.861832e-09 2.4209037e-08 6.135533e-09 2.7474124e-08 5.729628e-08 1.6090025e-08 3.875365e-08 1.5124332e-08
1.7268613e-09 2.5991491e-09 2.0346385e-09 3.881087e-09 3.845159e-09 5.3313025e-09 4.4879993e-09 2.4545732e-09
3.404301e-08 2.3005704e-08 1.5742858e-08 7.84396e-09 1.3219783e-08 5.675177e-09 4.312652e-08 2.0808535e-08
9.428417e-08 3.3273658e-08 4.3582318e-08 2.7938741e-08 2.9822496e-09 5.5569855e-09 6.035288e-09 8.801754e-09
7.441672e-09 1.1137335e-08 1.16363395e-07 1.8276445e-07 1.7017446e-09 1.3660277e-09 1.3492052e-09 3.22146e-09
7.3765767e-09 2.2193413e-08 3.0734975e-09 4.6383573e-09 4.1088278e-08 4.5432472e-08 1.3356461e-08 5.4098336e-08
8.4430605e-09 1.3326664e-08 1.1759297e-08 2.3243592e-08 9.823601e-09 1.2444981e-08 8.252566e-09 7.1054966e-09
2.0001963e-08 1.0075088e-08 1.7778916e-08 4.345476e-08 1.8838413e-08 6.051292e-08 3.5125346e-08 4.0362377e-08
1.15025545e-08 1.9351214e-08 1.40279415e-08 5.0070657e-08 6.5809735e-09 1.0531302e-08 1.2028227e-08 1.6675477e-08
3.3621583e-07 7.605103e-08 3.2294454e-07 1.4100503e-07 2.9374457e-08 1.3883084e-08 5.6610904e-08 2.6748243e-08
9.014665e-09 2.6599643e-08 1.3213922e-08 5.6067176e-08 5.379185e-08 1.7006933e-08 6.193883e-08 4.081001e-08
1.8850341e-09 2.441171e-09 2.0653383e-09 5.642471e-09 3.730504e-09 5.8174474e-09 3.1764644e-09 2.7418086e-09
2.1539076e-08 2.0062409e-08 1.2242779e-08 7.200686e-09 1.20683055e-08 4.7315925e-09 4.2153328e-08 1.5625403e-08
5.138968e-08 3.4786368e-08 2.6799167e-08 1.4669941e-08 1.9005368e-09 4.946638e-09 9.651587e-09 1.3591691e-08
2.9719388e-06 8.9780434e-07 3.4610102e-06 1.923534e-06 2.9196514e-07 3.2905965e-07 1.9951425e-07 1.0252402e-06
3.632744e-07 2.1972595e-07 1.9251235e-07 2.408826e-07 5.7093944e-06 1.7713307e-06 1.2085899e-06 1.5520158e-06
1.202286e-06 2.5250878e-07 1.399101e-06 1.2548188e-06 5.336606e-07 7.949538e-07 1.9688007e-07 4.1414776e-07
1.29897e-06 7.551106e-07 8.703411e-07 1.49123e-06 8.416277e-07 3.119292e-06 3.0652088e-06 2.6573148e-06
1.7192824e-06 1.2388699e-06 1.5163738e-06 2.5125821e-06 1.3356321e-06 1.2570283e-06 3.046487e-07 8.144785e-07
1.656769e-05 1.1902012e-05 4.7798317e-06 8.444606e-06 4.010443e-06 9.20069e-06 4.0040495e-06 6.1234896e-06
1.9353492e-06 6.683194e-07 1.3298427e-06 1.3980729e-06 1.4386901e-06 5.974594e-07 3.600027e-07 2.0257843e-07
2.9406291e-07 1.08958936e-07 3.9471055e-07 4.9490137e-07 4.2732683e-08 1.6190815e-07 1.09115064e-07 5.2523017e-08
7.751593e-07 2.2070563e-07 3.0748657e-07 1.7459364e-07 2.4624518e-07 1.5740301e-07 6.500982e-08 1.616557e-07
3.3977408e-06 3.2497474e-06 6.62668e-07 1.6938859e-06 1.5361042e-07 9.4955006e-08 9.389329e-08 8.893929e-08
7.2911774e-09 1.2698825e-08 1.2378753e-07 2.4033258e-07 3.3876444e-09 2.5389866e-09 6.1256475e-09 3.107447e-08
2.304681e-08 7.143831e-08 8.128144e-09 2.1840084e-08 9.441223e-09 1.1559773e-08 1.7270712e-09 1.5682298e-08

exp_avg f4 [80, 20]
00000000: 59f1 e336 c190 2137 d039 6834 d21d 26b5
00000010: 6de6 0bb7 7e21 5935 4e92 7935 c5d3 ffb6
00000020: b057 9ab6 8500 8d37 0141 b3b7 4bc1 bbb6
00000030: 120c b735 02bc 35b7 d8ac fdb6 3e52 4137
00000040: 28dc aab6 03cf 2937 da08 3637 1b39 9737
00000050: 7792 8534 5f4f 7ab5 2f2c 2233 fda4 7036
00000060: 5df2 6f34 b42f feb5 b162 30b6 bb22 35b6
00000070: eed8 edb5 42ec 6a35 c710 9635 c6f5 d5b5
00000080: edc9 40b6 fad3 e935 e081 1db5 c013 9fb4
00000090: 63b5 5836 9f7a 4335 edf6 08b6 8bf6 d135
000000a0: fd8e bb36 1e20 d3b3 4daa 39b6 154b 2f36
000000b0: fc3b 09b5 d331 8eb6 687d bf33 aa38 dfb4
000000c0: d6d1 1cb6 b806 5eb6 d024 62b6 8e19 92b6
000000d0: 5038 8535 6338 00b7 a9a2 04b5 e749 d035
000000e0: 66b4 5035 e858 7636 463e 4235 9548 0937
000000f0: 4f0e f3b5 5845 1cb5 547e 15b5 bfa9 6c36
00000100: b9cc 2fb6 f410 e3b6 8f35 d8b6 8395 cd35
00000110: 4038 88b6 5d62 70b7 419d ae33 283e 0d37
00000120: 542f 13b6 20f6 3db6 178c a935 59f7 6735
00000130: 4a8c a5b6 a52b 3e34 9b34 c136 a5a8 8235
00000140: 450a 5d36 94e0 7535 1216 19b6 f09e 6836
00000150: c8e5 ecb4 94dc 0b36 df71 6fb6 c40a 1ab6
00000160: e472 b9b5 0d16 0eb5 de41 e3b6 a8d0 5db6
00000170: 9818 8c34 f173 cbb6 86a7 26b6 22a1 1536
00000180: 11fe afb5 29a8 f136 8a1b 2136 1110 0e37
00000190: 1327 b7b6 bb17 5d36 7411 a1b6 ad4f 1537
000001a0: 724f 70b6 a2e9 4a37 4c56 c7b6 15d1 0736
000001b0: 4961 17b6 c2bd 1437 6fda d5b7 745d 11b5
000001c0: 26d6 51b7 75eb 5035 520d 8bb6 77a7 d134
000001d0: d008 d1b6 da09 2a37 bb28 5b34 511d d436
000001e0: 9c2f 81b5 b56b b7b5 b59c a335 1f42 d835
000001f0: 5468 04b7 32f5 8236 242b 32b7 b501 b336
00000200: adc9 0036 5070 5336 80fd 94b6 bc0d 4cb6
00000210: 9b18 e0b6 de7c b1b6 ba0f 8136 d6e8 83b5
00000220: e36a c6b6 355e 5337 a571 ea36 8656 1e36
00000230: 2b8c 4d37 230e cdb6 f96e d236 1eb2 a3b5
00000240: 7316 2f36 0524 05b7 0015 ff35 c816 c9b7
00000250: 9683 a6b5 19d7 2136 fbca 9937 b2b8 deb5
00000260: 9b64 3bb6 4609 3837 a25b 26b6 afc2 7cb6
00000270: 0c3f f437 8651 35b7 2c09 0334 4c55 a435
00000280: c468 3535 fa00 4fb6 bef4 92b5 d9f7 6636
00000290: 9faa a835 2d52 6db4 dac2 8e33 6089 90b6
000002a0: 0013 31b5 5ea6 45b6 8ec4 e136 4645 b936
000002b0: 5860 0eb5 0d4f 8536 b960 7134 6354 0cb6
000002c0: bfc8 9536 b052 eab6 02db c1b6 bd26 6ab6
000002d0: 9f4c 1936 ec5a bcb6 f2b7 a435 d898 c835
000002e0: 48db 3836 15a8 02b5 d310 1d35 a9c4 f1b6
000002f0: 7f0b a6b5 f9e9 5ab6 549e 5837 4bac 9736
00000300: 95a0 74b6 4b93 4637 44e0 6036 ccdb c8b6
00000310: 00a0 4b37 23ba 31b7 90ad abb6 365f 2db7
00000320: 633a 08b7 378e ceb6 0957 d736 91c3 53b7
00000330: 7722 9b35 93ef 0db7 03ce c936 1adf ab37
00000340: 2080 9135 3994 7bb7 4bb7 5c37 1d50 bd36
00000350: 9f7e 5137 d4cb bb36 0421 5537 e343 97b6
00000360: 14ae ebb6 8885 41b7 c625 a0b6 e05d a6b7
00000370: 1be4 fbb6 e2be 2636 44c0 9bb6 c8c2 4536
00000380: 73d1 efb6 0a57 0036 4bf8 0cb6 5fb4 0eb5
00000390: e95b da35 8fbe 0637 2e88 20b7 7ae8 63b6
000003a0: abdd bcb5 0702 b4b6 bf55 ceb6 e26e bf36
000003b0: 69f0 19b6 b4cb 2637 4d1a b336 16ba 1c37
000003c0: e3d5 84b6 1470 39b6 e2f2 2f35 4ef7 8cb6
000003d0: 8e72 0936 3562 c336 618f 9ab4 296d 3136
000003e0: 320f 9536 1729 eb36 6101 0036 e919 87b5
000003f0: 3002 46b6 5217 0d37 db6d 85b6 1d6f e4b6
6.7932237e-06 9.630051e-06 2.1627716e-07 -6.1883213e-07 -8.338696e-06 8.0887537e-07 9.297263e-07 -7.6242454e-06
-4.599766e-06 1.6808752e-05 -2.1368733e-05 -5.5955365e-06 1.3638075e-06 -1.0832215e-05 -7.560109e-06 1.1522845e-05
-5.0920244e-06 1.0121384e-05 1.0850106e-05 1.8027195e-05 2.4879748e-07 -9.324776e-07 3.775875e-08 3.5858823e-06
2.2346781e-07 -1.8938358e-06 -2.628349e-06 -2.6991318e-06 -1.7721011e-06 8.7515593e-07 1.1180754e-06 -1.5941266e-06
-2.8727766e-06 1.7421546e-06 -5.867605e-07 -2.9630428e-07 3.229209e-06 7.28216e-07 -2.040931e-06 1.5643467e-06
5.5896803e-06 -9.831295e-08 -2.7666276e-06 2.6120736e-06 -5.1123766e-07 -4.23773e-06 8.916942e-08 -4.1578215e-07
-2.3367952e-06 -3.3084489e-06 -3.3698052e-06 -4.354114e-06 9.925661e-07 -7.642523e-06 -4.9410534e-07 1.5518716e-06
7.774855e-07 3.6708607e-06 7.236125e-07 8.182736e-06 -1.8109075e-06 -5.8215437e-07 -5.5690657e-07 3.5265546e-06
-2.6196196e-06 -6.767101e-06 -6.4435367e-06 1.5317204e-06 -4.059664e-06 -1.4328017e-05 8.131111e-08 8.418727e-06
-2.1932256e-06 -2.8306458e-06 1.2632253e-06 8.6414144e-07 -4.933715e-06 1.7711007e-07 5.7579723e-06 9.734837e-07
3.2937544e-06 9.1596416e-07 -2.2811623e-06 3.4663208e-06 -4.4125613e-07 2.0841007e-06 -3.5680057e-06 -2.2954055e-06
-1.3817012e-06 -5.293121e-07 -6.772795e-06 -3.305302e-06 2.6094926e-07 -6.063369e-06 -2.483344e-06 2.2296522e-06
-1.3112459e-06 7.201936e-06 2.40069e-06 8.4676e-06 -5.458374e-06 3.294538e-06 -4.8002057e-06 8.899643e-06
-3.580903e-06 1.2094535e-05 -5.9407084e-06 2.023827e-06 -2.255738e-06 8.865669e-06 -2.5493295e-05 -5.41527e-07
-1.2507231e-05 7.7828673e-07 -4.1440735e-06 3.905113e-07 -6.2297113e-06 1.0135083e-05 2.0410782e-07 6.321505e-06
-9.625105e-07 -1.3665909e-06 1.2190054e-06 1.6112498e-06 -7.892104e-06 3.9028464e-06 -1.0619671e-05 5.3348144e-06
1.9190877e-06 3.1506825e-06 -4.440255e-06 -3.0406363e-06 -6.6785847e-06 -5.2895475e-06 3.8463304e-06 -9.828025e-07
-5.913303e-06 1.2598514e-05 6.9869734e-06 2.3594198e-06 1.2251588e-05 -6.111122e-06 6.2714066e-06 -1.2196285e-06
2.60901e-06 -7.935804e-06 1.9005092e-06 -2.3971676e-05 -1.240626e-06 2.4116073e-06 1.8333541e-05 -1.6594042e-06
-2.7923732e-06 1.0969414e-05 -2.4789265e-06 -3.7664247e-06 2.9116425e-05 -1.0807422e-05 1.2203662e-07 1.2243777e-06
6.758021e-07 -3.0845972e-06 -1.0949077e-06 3.4416937e-06 1.2566633e-06 -2.210224e-07 6.6478336e-08 -4.307527e-06
-6.5965287e-07 -2.9452126e-06 6.7284045e-06 5.521494e-06 -5.303932e-07 3.9729116e-06 2.2480062e-07 -2.0910745e-06
4.463916e-06 -6.9833695e-06 -5.777344e-06 -3.4891266e-06 2.2843376e-06 -5.6134213e-06 1.2272487e-06 1.4945645e-06
2.7545775e-06 -4.8673365e-07 5.851154e-07 -7.205254e-06 -1.237131e-06 -3.2620721e-06 1.2911467e-05 4.520208e-06
-3.6452304e-06 1.1836014e-05 3.350914e-06 -5.986052e-06 1.2136996e-05 -1.05933605e-05 -5.1164025e-06 -1.0333772e-05
-8.119826e-06 -6.1558344e-06 6.4176315e-06 -1.2622114e-05 1.155843e-06 -8.460035e-06 6.0142497e-06 2.0488678e-05
1.0840631e-06 -1.4995277e-05 1.3155698e-05 5.6419653e-06 1.2486852e-05 5.596763e-06 1.2703476e-05 -4.5080537e-06
-7.023811e-06 -1.1534787e-05 -4.772769e-06 -1.9832456e-05 -7.506938e-06 2.4847036e-06 -4.6417426e-06 2.9468665e-06
-7.147138e-06 1.912415e-06 -2.1006151e-06 -5.3161597e-07 1.6269015e-06 8.03139e-06 -9.56845e-06 -3.3960955e-06
-1.4071605e-06 -5.364654e-06 -6.1492606e-06 5.705152e-06 -2.2938714e-06 9.941799e-06 5.3376775e-06 9.341651e-06
-3.9588062e-06 -2.7632386e-06 6.554602e-07 -4.201115e-06 2.048127e-06 5.8228857e-06 -2.8789057e-07 2.6438595e-06
4.442315e-06 7.0083292e-06 1.907429e-06 -1.0065825e-06 -2.9505572e-06 8.409685e-06 -3.9764977e-06 -6.807865e-06

exp_avg_sq f4 [80, 20]
00000000: c62d 9831 2279 f12f ecb7 c42f e68f 8a2f
00000010: 2e4f b52f d0fb d930 862a 4130 7403 7830
00000020: 0aa2 d930 7237 4b31 a1c7 9131 e2a6 e730
00000030: e488 e430 49da 0832 7e05 1130 4d96 f630
00000040: 46af 9b2f e9c6 fb30 0a45 c230 d4ad 3332
00000050: 4173 bd2d 8638 c72d 53ff d22d 4a5b 2f2e
00000060: 4cb6 aa2c 7a91 352e 2dad de2d 555b eb2d
00000070: 5534 0c2e cf90 922e 2208 392e f3f4 9d2d
00000080: 2c91 362e 9ded 7d2e 511f 8c2d a0c5 622e
00000090: 6b43 ed2d b2a2 382d 8237 722d eefe d02e
000000a0: c343 d02e 4af0 5d2e 80bd 3830 7e37 3030
000000b0: 1d4f 272f c53e b530 1181 3e2f 83e9 722f
000000c0: 37b5 d32f 6185 ea30 372b c02f 1407 012f
000000d0: 3de6 9a2f 067b fa2f ba77 df2e 4b06 3330
000000e0: da65 0c2f 262f 512f 24c0 432f 3058 a730
000000f0: 42b3 b92f 6607 0230 28c3 6930 3168 1930
00000100: d30f e02f 471b 1831 add4 0130 057e 0a30
00000110: 5a31 6030 675e 2831 547b e330 3ceb cd2f
00000120: eabc 1030 f44c df30 27a7 322f 98b0 aa30
00000130: 3f25 cf30 ec4c 6930 f2b6 0b30 20b6 0f31
00000140: e5c9 732e dffc 322e c85d ae2e 0e43 e82e
00000150: 94f7 2f2f ddc5 df2f 6e24 262f 2b91 a22e
00000160: 449c ed2e aca3 4f30 6829 902f 0214 192f
00000170: 65a2 662f 4ba8 552f 8d7a 5b2e 8264 7a2e
00000180: 9dd6 eb2e 61b6 de2f ad34 c82e b409 9b2f
00000190: a33b 0d2f aed1 512f 83a5 062f a685 2f2f
000001a0: a69f b02f d38c ff2f 382f 912f f9af 802f
000001b0: d0d0 c92e c1cb 4930 1c2e e830 29f3 0130
000001c0: d0c7 ed2f fa9b 6330 106a ad2f 32f3 7f2f
000001d0: 4fc4 1230 29b4 c030 010b f12f 89fb 8d30
000001e0: d4ef 132f 756b 532e 894b 502f 6f9a 4a2f
000001f0: d3b0 c72f c4e6 fc2f 7803 4b30 118a 152f
00000200: f8b4 942f d348 5730 ecef 1f30 e5c0 122f
00000210: 66dc ea2f 4a3b 7c30 baad b62e baf0 c22f
00000220: 6e2c 812f 67e5 8730 49bb eb2e 4912 8530
00000230: 166f ce30 1834 0630 eb34 5b30 d864 9e30
00000240: 46ea e130 6db1 9031 0867 5a30 4b8d 8f31
00000250: e7eb d930 2a3a 9d31 d4fb b130 a6b9 862f
00000260: 6249 d330 b5dd ec30 d5f2 882f 1f13 7e30
00000270: 92fd 9131 e5fe d030 7c79 0530 dc2a 5e31
00000280: fba8 0f2f 74b5 6a2e 8e3a 462f 7f9f 5a2f
00000290: f1d1 9c2e 8eaf f72f 8f72 8a2e 41e3 a22e
000002a0: 9808 372f 4284 0230 fe37 1b2f e078 812e
000002b0: e5d4 bf2e 6f19 802f c315 252e 95b1 a52f
000002c0: b357 332f 5cfc f02e 5949 192f cdac ce2f
000002d0: e937 b52e ddc2 992f cba9 622f 606b 492f
000002e0: 96b1 802f 1bc6 572f dbb8 322f 533c 022f
000002f0: 7650 172e 4740 d92f 2815 8930 cc0d a82f
00000300: 971d 382f a954 7d30 3421 5f2f c031 0930
00000310: 118e 2830 b2e9 6330 9dc2 a92f e386 9b30
00000320: c6c7 9330 113b d130 f854 d930 0240 2031
00000330: 7787 1c31 e4cb a130 030a f330 cc94 bd30
00000340: ba70 1031 a528 9c31 21f7 8332 9460 e031
00000350: 4fd4 9431 1a24 8c31 cc14 ac31 58be b131
00000360: 6453 0431 d43a 3b32 f950 6b31 0876 8832
00000370: 5f58 0031 b342 9230 2475 1430 0f53 f42f
00000380: a95c c72f a79d 5130 275c f22f 82e3 422f
00000390: 7712 b530 a55e 9d30 3d3d 9b31 a56e 3a31
000003a0: 8558 0230 d0d4 a231 2774 8a30 2cc2 6631
000003b0: a482 b530 e8e0 5331 e050 1031 8cec 1932
000003c0: c4ab 252f ad0b 542f 332d 782f a871 6e2f
000003d0: c3a1 312f 2a85 3830 7dbe 7a2f d181 892f
000003e0: c84f 312f 32ac 7b30 25a2 0330 55c7 252f
000003f0: b198 2630 6988 ab30 1843 982e aa2a b12f
4.428986e-09 4.3923715e-10 3.5782877e-10 2.52043e-10 3.297997e-10 1.5860397e-09 7.027342e-10 9.022678e-10
1.5834882e-09 2.9571905e-09 4.2427506e-09 1.6854893e-09 1.662809e-09 7.965874e-09 5.27585e-10 1.7941574e-09
2.8318875e-10 1.8319187e-09 1.413498e-09 1.0458695e-08 2.1537995e-11 2.2648782e-11 2.3987623e-11 3.9871474e-11
4.8519296e-12 4.1283844e-11 2.5315383e-11 2.6756966e-11 3.1878795e-11 6.6650345e-11 4.2071353e-11 1.7957613e-11
4.1510947e-11 5.7736583e-11 1.5930065e-11 5.1561977e-11 2.697372e-11 1.0495315e-11 1.3768433e-11 9.5040295e-11
9.470782e-11 5.0463002e-11 6.7208106e-10 6.4107286e-10 1.5216668e-10 1.3187323e-09 1.7326253e-10 2.2092732e-10
3.8509437e-10 1.7063649e-09 3.4955303e-10 1.1734996e-10 2.817603e-10 4.5562148e-10 1.01621336e-10 6.5128763e-10
1.2769111e-10 1.902519e-10 1.7803409e-10 1.2175914e-09 3.3778674e-10 4.730424e-10 8.504224e-10 5.580914e-10
4.0756606e-10 2.2134417e-09 4.7232157e-10 5.038319e-10 8.156086e-10 2.450088e-09 1.6551476e-09 3.7456427e-10
5.265536e-10 1.6247257e-09 1.624839e-10 1.2419319e-09 1.5071818e-09 8.487422e-10 5.0827886e-10 2.0912765e-09
5.543112e-11 4.069711e-11 7.929263e-11 1.056205e-10 1.6004115e-10 4.0704054e-10 1.5110554e-10 7.392694e-11
1.08052706e-10 7.5538753e-10 2.6222868e-10 1.3922377e-10 2.0976072e-10 1.9432027e-10 4.9903682e-11 5.6932688e-11
1.0724686e-10 4.0511153e-10 9.104304e-11 2.820123e-10 1.2845063e-10 1.9082932e-10 1.224603e-10 1.5963639e-10
3.212765e-10 4.6484291e-10 2.6408897e-10 2.34081e-10 9.177514e-11 7.3412926e-10 1.6893327e-09 4.727548e-10
4.3252024e-10 8.2803775e-10 3.154388e-10 2.3278515e-10 5.339346e-10 1.4021043e-09 4.3845463e-10 1.0330591e-09
1.3454776e-10 4.8071287e-11 1.8944325e-10 1.8426659e-10 3.632353e-10 4.6002502e-10 7.38559e-10 1.3600522e-10
2.704963e-10 7.8320034e-10 5.818481e-10 1.3347153e-10 4.2720955e-10 9.176132e-10 8.307262e-11 3.545944e-10
2.3496532e-10 9.887743e-10 1.0719831e-10 9.682221e-10 1.5020045e-09 4.8822946e-10 7.9746937e-10 1.1524675e-09
1.6437489e-09 4.2111226e-09 7.9454354e-10 4.177911e-09 1.5855876e-09 4.575914e-09 1.2950019e-09 2.450637e-10
1.5373127e-09 1.7234273e-09 2.4910798e-10 9.2431834e-10 4.248883e-09 1.5206437e-09 4.855776e-10 3.2329615e-09
1.3065808e-10 5.3366603e-11 1.8028798e-10 1.9883649e-10 7.131352e-11 4.5053777e-10 6.295863e-11 7.4072755e-11
1.6646806e-10 4.7481674e-10 1.411706e-10 5.8877125e-11 8.723492e-11 2.3301136e-10 3.7535985e-11 3.0139505e-10
1.6311112e-10 1.09587645e-10 1.3941327e-10 3.7593964e-10 8.240859e-11 2.7968997e-10 2.0614903e-10 1.8318991e-10
2.3409247e-10 1.9624517e-10 1.625468e-10 1.1844863e-10 3.440489e-11 3.9517742e-10 9.974075e-10 3.0568825e-10
1.6745215e-10 9.2161173e-10 2.0293528e-10 4.991101e-10 6.131993e-10 8.291422e-10 3.0879202e-10 1.1316071e-09
1.0752437e-09 1.5223539e-09 1.5812978e-09 2.3319449e-09 2.277799e-09 1.1772241e-09 1.7683423e-09 1.379385e-09
2.1018836e-09 4.5448183e-09 1.5362788e-08 6.5302377e-09 4.3315036e-09 4.0786405e-09 5.008223e-09 5.1730176e-09
1.925593e-09 1.0898209e-08 3.4243028e-09 1.5886158e-08 1.8676685e-09 1.0641855e-09 5.4008553e-10 4.4442358e-10
3.6263728e-10 7.6257795e-10 4.4085022e-10 1.7725024e-10 1.3174731e-09 1.1450153e-09 4.5180557e-09 2.7129456e-09
4.741952e-10 4.7390145e-09 1.0073834e-09 3.357978e-09 1.3206614e-09 3.0832386e-09 2.100073e-09 8.959557e-09
1.5067686e-10 1.9285436e-10 2.2571527e-10 2.1686353e-10 1.6155526e-10 6.712805e-10 2.2805043e-10 2.5012395e-10
1.61264e-10 9.155797e-10 4.7887944e-10 1.507748e-10 6.0607436e-10 1.2480658e-09 6.924078e-11 3.2226427e-10

exp_avg f4 [80]
00000000: 771f 9a37 7073 0bb7 f05b 6e37 d5f3 75b6
00000010: 6a87 6e37 ba6d bf37 8f15 6537 9331 a4b8
00000020: ef55 b7b7 cee6 4db8 ce16 f6b7 3480 e337
00000030: ec7b 80b7 b9c1 de37 a93c b9b6 b2c0 d236
00000040: f867 4ab8 9086 1738 7549 37b7 3b5c 3338
00000050: 79fb 4ab7 e861 8bb5 e8a3 d236 615a b5b7
00000060: f80e ae37 b4e3 0738 2793 8137 e109 06b9
00000070: dfe0 74b7 1b92 dbb7 6dd7 4fb8 ef67 eb34
00000080: e0f7 a0b6 6bc1 a037 d160 b0b6 6e0b 54b6
00000090: 4553 52b8 6688 2838 434b 8cb7 c743 f837
000000a0: d44a 203a 0503 a9b7 f2e6 8c38 f973 3e39
000000b0: f51b 06b7 978c a7b8 8bb6 cab9 ed22 a3ba
000000c0: b0a2 a6b9 a8ec 81b9 99cb 69b9 ed83 c9b9
000000d0: e573 bab9 ec5d fab8 2845 19b9 906b cc38
000000e0: dceb 2039 36d3 6e39 e560 d138 f282 9739
000000f0: 0dc2 6e36 f6a9 10b7 46a8 8c37 213d 9ab7
00000100: fbd4 0b38 0490 a238 14e5 bb37 dc07 9bb8
00000110: 5497 91b7 54b7 37b8 b929 52b7 e10f b437
00000120: 8d0e e9b7 2244 5f38 ec77 16b7 6d96 64b7
00000130: 9d7b 9ab8 6a71 b838 0502 17b7 c0f3 6938
1.8372883e-05 -8.311923e-06 1.4207311e-05 -3.6649774e-06 1.4217434e-05 2.282007e-05 1.3654483e-05 -7.829363e-05
-2.1855316e-05 -4.9090762e-05 -2.9336104e-05 2.7120208e-05 -1.5316495e-05 2.6554671e-05 -5.5204914e-06 6.2809204e-06
-4.825738e-05 3.6126527e-05 -1.0924753e-05 4.2762822e-05 -1.2098689e-05 -1.0384801e-06 6.277569e-06 -2.1618967e-05
2.0749387e-05 3.2398573e-05 1.5446522e-05 -0.00012782916 -1.459589e-05 -2.617487e-05 -4.9553277e-05 4.3847783e-07
-4.797228e-06 1.9163554e-05 -5.2564797e-06 -3.1597115e-06 -5.0145452e-05 4.0181352e-05 -1.6724347e-05 2.9595465e-05
0.0006114666 -2.0147776e-05 6.718737e-05 0.00018163015 -7.993532e-06 -7.9893674e-05 -0.00038664447 -0.0012446322
-0.000317832 -0.0002478112 -0.00022296458 -0.00038436 -0.00035563033 -0.00011938423 -0.0001461698 9.747513e-05
0.00015346654 0.00022776131 9.9839446e-05 0.00028898526 3.5577716e-06 -8.622641e-06 1.6767659e-05 -1.8386696e-05
3.3338536e-05 7.751587e-05 2.239881e-05 -7.39244e-05 -1.7355815e-05 -4.3801338e-05 -1.252669e-05 2.1465066e-05
-2.778254e-05 5.3230797e-05 -8.968618e-06 -1.3624883e-05 -7.366317e-05 8.794929e-05 -9.000772e-06 5.577854e-05

exp_avg_sq f4 [80]
00000000: 4b18 e332 5ec7 fe2f 46fe 0c32 8736 9e32
00000010: 81d4 d330 895b 0032 c09b 2032 e532 b232
00000020: 7b15 7331 b852 b332 490c 5133 836d 5833
00000030: 9b22 2532 3676 8432 d1fa 8d30 bfc3 4732
00000040: ad05 eb32 ca18 2333 c9ae 1432 2355 ba32
00000050: 1437 1432 e989 0930 8e77 b331 5d22 8032
00000060: 7fc3 6731 36b6 a331 a4d0 6332 e5d8 1733
00000070: 4bf2 0032 4004 8032 e9ce 1c34 4cb1 1333
00000080: 6690 7532 d4e8 0333 5f21 ad30 bbdd 1132
00000090: 0dbc 0633 1490 2833 5c45 6e32 0b04 7032
000000a0: 2dbe 8436 f405 9f33 fd67 1134 3cc2 e034
000000b0: 517d b834 6b84 2835 484a 0536 9212 8637
000000c0: 960c 0636 e910 0c35 72ab 3f36 d7ab 0037
000000d0: f8cc 2336 4d8d 1234 cc07 4d34 b12b e534
000000e0: a80d 0835 9ad7 0835 babe a135 92ee 2f35
000000f0: 0a5d 9c32 933e cb30 e92e 7632 05e4 1132
00000100: 75d3 8131 f39f d633 cbd3 1333 0cc1 9a32
00000110: 17c4 2232 ebc7 fa32 5ace 0b33 76cc b732
00000120: d23e eb32 b58a 7733 e6d9 1531 c4cc 2632
00000130: 53e1 1e33 ad9b 2734 2892 c431 9aa0 3333
2.6437325e-08 4.634399e-10 8.206888e-09 1.8418417e-08 1.5412668e-09 7.471393e-09 9.348639e-09 2.0745071e-08
3.5373364e-09 2.0875959e-08 4.8672778e-08 5.039102e-08 9.612132e-09 1.5420579e-08 1.0330387e-09 1.1627832e-08
2.7360182e-08 3.797394e-08 8.654475e-09 2.1691966e-08 8.627257e-09 5.003629e-10 5.2231774e-09 1.4916788e-08
3.372605e-09 4.7646393e-09 1.3260578e-08 3.535469e-08 7.505672e-09 1.4903094e-08 1.4603906e-07 3.4387355e-08
1.4293709e-08 3.071257e-08 1.2596891e-09 8.4905265e-09 3.1370337e-08 3.9246586e-08 1.3869194e-08 1.3970758e-08
3.956046e-06 7.405097e-08 1.3542008e-07 4.1864575e-07 3.436385e-07 6.277757e-07 1.9861782e-06 1.5982692e-05
1.9974882e-06 5.217867e-07 2.8561012e-06 7.669404e-06 2.44082e-06 1.3648715e-07 1.9094949e-07 4.2686364e-07
5.068382e-07 5.097769e-07 1.2050943e-06 6.5539746e-07 1.82031e-08 1.4787979e-09 1.4329751e-08 8.4919565e-09
3.778434e-09 9.994246e-08 3.441873e-08 1.8015747e-08 9.474227e-09 2.9194743e-08 3.2551135e-08 2.1396982e-08
2.7386168e-08 5.7635322e-08 2.1806215e-09 9.70903e-09 3.6992173e-08 1.5609722e-07 5.720967e-09 4.182275e-08

exp_avg f4 [80]
00000000: 7b1f 9a37 7073 0bb7 f15b 6e37 e1f3 75b6
00000010: 6b87 6e37 b96d bf37 8f15 6537 9231 a4b8
00000020: ef55 b7b7 cde6 4db8 d416 f6b7 3080 e337
00000030: e97b 80b7 b5c1 de37 a23c b9b6 b7c0 d236
00000040: f767 4ab8 8e86 1738 7449 37b7 3a5c 3338
00000050: 79fb 4ab7 e461 8bb5 e9a3 d236 595a b5b7
00000060: f90e ae37 b4e3 0738 2b93 8137 e109 06b9
00000070: e9e0 74b7 1992 dbb7 6bd7 4fb8 bf67 eb34
00000080: def7 a0b6 6dc1 a037 ce60 b0b6 760b 54b6
00000090: 4653 52b8 6a88 2838 454b 8cb7 c743 f837
000000a0: d24a 203a 0f03 a9b7 ede6 8c38 fa73 3e39
000000b0: fa1b 06b7 998c a7b8 8bb6 cab9 ee22 a3ba
000000c0: b0a2 a6b9 a4ec 81b9 9ccb 69b9 ec83 c9b9
000000d0: e573 bab9 e65d fab8 2845 19b9 906b cc38
000000e0: dceb 2039 38d3 6e39 e260 d138 f282 9739
000000f0: 44c2 6e36 f0a9 10b7 46a8 8c37 213d 9ab7
00000100: fad4 0b38 0590 a238 14e5 bb37 dd07 9bb8
00000110: 5397 91b7 57b7 37b8 a729 52b7 e10f b437
00000120: 8f0e e9b7 2244 5f38 eb77 16b7 7296 64b7
00000130: 9e7b 9ab8 6971 b838 0402 17b7 c0f3 6938
1.837289e-05 -8.311923e-06 1.4207312e-05 -3.66498e-06 1.4217435e-05 2.2820068e-05 1.3654483e-05 -7.8293626e-05
-2.1855316e-05 -4.909076e-05 -2.9336115e-05 2.71202e-05 -1.531649e-05 2.6554664e-05 -5.5204882e-06 6.2809227e-06
-4.8257378e-05 3.612652e-05 -1.0924752e-05 4.276282e-05 -1.2098689e-05 -1.0384797e-06 6.2775694e-06 -2.1618953e-05
2.0749389e-05 3.2398573e-05 1.5446529e-05 -0.00012782916 -1.4595899e-05 -2.6174866e-05 -4.955327e-05 4.3847646e-07
-4.797227e-06 1.9163557e-05 -5.2564783e-06 -3.1597133e-06 -5.0145456e-05 4.0181367e-05 -1.672435e-05 2.9595465e-05
0.0006114665 -2.0147794e-05 6.7187335e-05 0.00018163017 -7.993536e-06 -7.989369e-05 -0.00038664447 -0.0012446323
-0.000317832 -0.00024781108 -0.00022296462 -0.00038435997 -0.00035563033 -0.00011938419 -0.0001461698 9.747513e-05
0.00015346654 0.00022776134 9.9839424e-05 0.00028898526 3.557784e-06 -8.6226355e-06 1.6767659e-05 -1.8386696e-05
3.3338532e-05 7.751588e-05 2.239881e-05 -7.3924406e-05 -1.7355813e-05 -4.380135e-05 -1.2526673e-05 2.1465066e-05
-2.7782544e-05 5.3230797e-05 -8.968617e-06 -1.3624887e-05 -7.366318e-05 8.794928e-05 -9.000771e-06 5.577854e-05

exp_avg_sq f4 [80]
00000000: 4a18 e332 5dc7 fe2f 46fe 0c32 8936 9e32
00000010: 80d4 d330 8a5b 0032 be9b 2032 e532 b232
00000020: 7d15 7331 b852 b332 4a0c 5133 826d 5833
00000030: 9a22 2532 3676 8432 d1fa 8d30 bec3 4732
00000040: ac05 eb32 ca18 2333 c9ae 1432 2355 ba32
00000050: 1237 1432 e889 0930 8d77 b331 5e22 8032
00000060: 7fc3 6731 35b6 a331 a2d0 6332 e5d8 1733
00000070: 4cf2 0032 3f04 8032 e9ce 1c34 4cb1 1333
00000080: 6590 7532 d5e8 0333 5f21 ad30 bbdd 1132
00000090: 0dbc 0633 1490 2833 5c45 6e32 0b04 7032
000000a0: 2dbe 8436 f305 9f33 ff67 1134 3dc2 e034
000000b0: 527d b834 6b84 2835 484a 0536 9212 8637
000000c0: 960c 0636 e910 0c35 72ab 3f36 d7ab 0037
000000d0: f8cc 2336 4d8d 1234 ce07 4d34 b02b e534
000000e0: a80d 0835 9bd7 0835 babe a135 91ee 2f35
000000f0: 095d 9c32 983e cb30 e92e 7632 05e4 1132
00000100: 74d3 8131 f39f d633 cad3 1333 0cc1 9a32
00000110: 18c4 2232 eac7 fa32 5ace 0b33 76cc b732
00000120: d53e eb32 b48a 7733 e4d9 1531 c4cc 2632
00000130: 53e1 1e33 ae9b 2734 2a92 c431 99a0 3333
2.6437323e-08 4.6343987e-10 8.206888e-09 1.841842e-08 1.5412667e-09 7.471394e-09 9.348637e-09 2.0745071e-08
3.5373369e-09 2.0875959e-08 4.867278e-08 5.0391016e-08 9.6121315e-09 1.5420579e-08 1.0330387e-09 1.1627831e-08
2.736018e-08 3.797394e-08 8.654475e-09 2.1691966e-08 8.627255e-09 5.0036286e-10 5.223177e-09 1.491679e-08
3.372605e-09 4.764639e-09 1.3260577e-08 3.535469e-08 7.5056725e-09 1.4903092e-08 1.4603906e-07 3.4387355e-08
1.4293708e-08 3.0712574e-08 1.2596891e-09 8.4905265e-09 3.1370337e-08 3.9246586e-08 1.3869194e-08 1.3970758e-08
3.956046e-06 7.4050966e-08 1.3542011e-07 4.1864578e-07 3.4363853e-07 6.277757e-07 1.9861782e-06 1.5982692e-05
1.9974882e-06 5.217867e-07 2.8561012e-06 7.669404e-06 2.44082e-06 1.3648715e-07 1.9094952e-07 4.268636e-07
5.068382e-07 5.0977695e-07 1.2050943e-06 6.553974e-07 1.8203098e-08 1.4787984e-09 1.4329751e-08 8.4919565e-09
3.7784336e-09 9.994246e-08 3.4418726e-08 1.8015747e-08 9.474228e-09 2.919474e-08 3.2551135e-08 2.1396982e-08
2.7386173e-08 5.763532e-08 2.180621e-09 9.70903e-09 3.6992173e-08 1.5609723e-07 5.7209677e-09 4.1822748e-08

exp_avg f4 [80, 20]
00000000: e491 e4b6 c96b 3637 cae6 f3b6 516f f4b5
00000010: 2ffa b3b6 fa34 2337 f00d 4136 064c 1537
00000020: 59c6 5735 df8c 3237 a0d8 c1b7 1c42 76b6
00000030: 5df5 a936 f155 97b7 f09c cbb6 3b28 4837
00000040: 2006 adb7 42a5 7237 a949 3237 b7d8 9437
00000050: 1d3d 79b7 766f 0236 5ff2 6535 3dae 87b6
00000060: f7ab efb6 ca9d 9f37 b937 2eb7 e587 7937
00000070: ea7d 4d37 45e1 5437 ed8b 90b7 ed42 9b36
00000080: 6c8f a5b6 3889 8fb5 72af 6235 792a d3b6
00000090: 6d4b 96b7 9786 8c37 3416 ef36 7e7b 36b6
000000a0: 8879 2bb5 f758 2036 13c7 42b6 0773 74b6
000000b0: 87e1 d3b6 c512 3136 a29e b1b6 1849 9b35
000000c0: d6ed 0e36 389b a535 7118 c6b6 4ae4 7136
000000d0: ca6a fab5 7fb5 a835 32fc 3936 29b2 b9b5
000000e0: 88ac 26b7 54a6 6536 6b3a af36 99ed 64b6
000000f0: 125a 5db6 7114 8835 8943 8734 8a63 33b6
00000100: 322b 89b6 a715 bb36 e52c c5b6 8ead a936
00000110: 0f16 6636 c2dd eb36 1dd1 eab6 120b 32b6
00000120: ce4a 96b5 b764 8db6 f0e3 e734 ca68 b934
00000130: bf9b 18b7 e402 1337 84fa ad36 9bcb 4a36
00000140: 5649 d235 5f01 a636 0564 b1b5 8279 53b7
00000150: 3db7 00b7 2dc6 14b7 8c0c f436 8036 e1b5
00000160: 60d1 3a35 e021 7b37 8db9 1937 db11 2bb7
00000170: d50b 1a36 ef2f aeb5 2499 85b6 b15c 1837
00000180: 3acb 0e35 c3a5 b3b5 df5b 23b5 534e 9536
00000190: 3c50 4bb5 a5c7 a335 1062 9e35 7adb 95b6
000001a0: 7462 2cb5 e983 0fb6 b02a 2733 9aa4 a236
000001b0: 0628 81b5 0255 8635 5c9e da35 9947 0834
000001c0: 3c5c 57b4 bc4e 9336 10bc a8b4 1218 2836
000001d0: b94e 09b6 a499 2cb6 d51a 8833 8ab0 18b6
000001e0: af98 67b7 85dd 1136 2459 1935 8f48 68b5
000001f0: 32e3 c0b6 dc46 9937 cde6 29b7 f119 5137
00000200: b0e5 2337 eed9 8137 ba92 b5b7 0612 1536
00000210: 276c 0eb7 96ed 5436 06f0 dfb5 98b2 a2b6
00000220: b8af 93b7 2ea9 7237 3b94 be36 cbf2 48b6
00000230: 2555 dc36 8d94 1db7 5544 f436 35f8 8cb6
00000240: c540 b936 b297 2835 bd48 1db5 9159 dfb6
00000250: c1bd 2a36 d53c dab5 4de8 9637 112f fe35
00000260: f24b 3136 adbb 0737 9371 0a36 23fd 31b7
00000270: 3521 3d37 da71 5cb7 4fce 76b6 d2bc 4db7
00000280: 38d1 f7b5 850e d0b5 fc9f 0236 dc26 ffb5
00000290: 35e5 5535 eee9 24b6 ffdc 2135 1994 1d35
000002a0: f7a5 1a36 516f 7a36 a5de 9d36 4981 d835
000002b0: a001 ef33 5f04 e736 bbe4 59b4 bad4 aab5
000002c0: df51 0336 50bd d4b5 b591 5e36 b4bb a1b6
000002d0: a6f8 4cb7 f2cd 3db7 1ca9 3a37 4560 1fb6
000002e0: 0294 beb5 6ed6 00b6 0a22 59b7 85e1 6a37
000002f0: 4ce9 5537 eec5 31b7 51c2 da37 3271 7b37
00000300: f819 67b6 eb2a d137 c1e3 1637 647b 99b7
00000310: c4af cab4 b9ec 42b7 b03b d1b6 50f3 18b8
00000320: f80c 94b7 c109 6e35 2cbc ceb5 bfcd 4bb6
00000330: b5e2 b3b6 a3be 4437 6b25 b0b6 d656 c537
00000340: 0bc0 3e37 9c92 b6b6 0858 63b6 87a5 8337
00000350: d3cc 3336 ed5a 4eb6 d47d ca36 98b2 beb6
00000360: 127a e6b7 ba1b 3d36 8f9a bb35 d74b 56b7
00000370: c4ff 1fb6 4971 6db6 3230 ed36 a5a0 d8b6
00000380: 778f 9835 ebb4 9836 dcde 90b6 78ca 1d37
00000390: 12be dd36 463c 8935 07d1 1437 8db0 8436
000003a0: c56f 17b6 1b88 6737 9b03 a436 e985 46b7
000003b0: 414f d2b6 9640 28b6 f419 7036 b43a 91b7
000003c0: e876 9433 6e81 6037 5cca 50b6 6e84 b8b6
000003d0: 878a 27b5 2169 e636 beda d336 a731 2d34
000003e0: 0479 9eb5 e7eb a637 9265 a4b7 884d 59b7
000003f0: a48b 0836 5546 04b7 6a1e 4db7 87b8 5237
-6.8119134e-06 1.0873141e-05 -7.2688317e-06 -1.8211814e-06 -5.363741e-06 9.727892e-06 2.8767354e-06 8.898793e-06
8.0382375e-07 1.0642426e-05 -2.3108267e-05 -3.6695337e-06 5.0651565e-06 -1.8040622e-05 -6.0681414e-06 1.1930296e-05
-2.062606e-05 1.4462801e-05 1.0626777e-05 1.774389e-05 -1.4855786e-05 1.9436388e-06 8.5661844e-07 -4.0435975e-06
-7.1427744e-06 1.9027753e-05 -1.0384182e-05 1.4873197e-05 1.2248269e-05 1.2688634e-05 -1.7231296e-05 4.627151e-06
-4.9340797e-06 -1.0694266e-06 8.444687e-07 -6.2932345e-06 -1.7916516e-05 1.6751974e-05 7.12534e-06 -2.7191995e-06
-6.3879315e-07 2.3893642e-06 -2.902413e-06 -3.6425788e-06 -6.314545e-06 2.638598e-06 -5.2934784e-06 1.1569673e-06
2.1298088e-06 1.2338633e-06 -5.903705e-06 3.604468e-06 -1.8657531e-06 1.2569798e-06 2.7713945e-06 -1.3835426e-06
-9.934542e-06 3.4220475e-06 5.222207e-06 -3.4112948e-06 -3.2983994e-06 1.0138739e-06 2.5194848e-07 -2.6731018e-06
-4.0879468e-06 5.575555e-06 -5.876284e-06 5.056797e-06 3.428551e-06 7.0293618e-06 -6.9980874e-06 -2.653051e-06
-1.1197642e-06 -4.213852e-06 4.319295e-07 3.453518e-07 -9.0961685e-06 8.762556e-06 5.1849656e-06 3.021886e-06
1.5667563e-06 4.947345e-06 -1.3216637e-06 -1.2604871e-05 -7.672058e-06 -8.867629e-06 7.2732273e-06 -1.6779668e-06
6.959508e-07 1.4968653e-05 9.162713e-06 -1.0196552e-05 2.2954675e-06 -1.2977961e-06 -3.981537e-06 9.081487e-06
5.3194856e-07 -1.3384782e-06 -6.085592e-07 4.449664e-06 -7.574015e-07 1.2202551e-06 1.1800457e-06 -4.4660965e-06
-6.421826e-07 -2.1385442e-06 3.892154e-08 4.8471384e-06 -9.622897e-07 1.0008519e-06 1.6288354e-06 1.2692034e-07
-2.005699e-07 4.3901073e-06 -3.1429272e-07 2.5047962e-06 -2.0460413e-06 -2.5719428e-06 6.337874e-08 -2.2752524e-06
-1.3804222e-05 2.1735625e-06 5.712666e-07 -8.653232e-07 -5.748495e-06 1.8272018e-05 -1.01269225e-05 1.2463411e-05
9.769035e-06 1.547948e-05 -2.1645206e-05 2.2213221e-06 -8.489041e-06 3.1728755e-06 -1.6684651e-06 -4.8487673e-06
-1.7605591e-05 1.4463714e-05 5.6796976e-06 -2.9943646e-06 6.566423e-06 -9.392516e-06 7.2797216e-06 -4.2012202e-06
5.52097e-06 6.280562e-07 -5.8592906e-07 -6.656345e-06 2.5442425e-06 -1.625997e-06 1.7989567e-05 1.8938173e-06
2.6419261e-06 8.090324e-06 2.0629711e-06 -1.060896e-05 1.12730095e-05 -1.313953e-05 -3.6776944e-06 -1.2262915e-05
-1.8463825e-06 -1.5501433e-06 1.9464633e-06 -1.901029e-06 7.9682223e-07 -2.457407e-06 6.0298765e-07 5.870257e-07
2.3044392e-06 3.7317698e-06 4.704884e-06 1.6130881e-06 1.11296e-07 6.8848453e-06 -2.0292912e-07 -1.2727899e-06
1.9568176e-06 -1.5850328e-06 3.316539e-06 -4.8200254e-06 -1.22172405e-05 -1.1313228e-05 1.1125838e-05 -2.3748883e-06
-1.4199179e-06 -1.91983e-06 -1.2942133e-05 1.3999995e-05 1.2750108e-05 -1.0596106e-05 2.607811e-05 1.4987121e-05
-3.4436798e-06 2.4934727e-05 8.993725e-06 -1.829648e-05 -3.7753318e-07 -1.1618417e-05 -6.235634e-06 -3.6466226e-05
-1.7649014e-05 8.8676103e-07 -1.5402961e-06 -3.0369117e-06 -5.361008e-06 1.1726896e-05 -5.2495648e-06 2.3524666e-05
1.1369596e-05 -5.4410903e-06 -3.3876877e-06 1.5693497e-05 2.6792302e-06 -3.0749318e-06 6.0347174e-06 -5.6832323e-06
-2.747498e-05 2.8179334e-06 1.3977568e-06 -1.2773052e-05 -2.3841721e-06 -3.5381693e-06 7.068761e-06 -6.456003e-06
1.1366636e-06 4.5510146e-06 -4.3174787e-06 9.40507e-06 6.6084403e-06 1.0224837e-06 8.870155e-06 3.9544598e-06
-2.2565812e-06 1.38003625e-05 4.8880006e-06 -1.1832898e-05 -6.267714e-06 -2.5071545e-06 3.5777894e-06 -1.7312683e-05
6.913416e-08 1.3381576e-05 -3.1112204e-06 -5.499044e-06 -6.241393e-07 6.8667728e-06 6.313755e-06 1.6129944e-07
-1.1807138e-06 1.9898593e-05 -1.959762e-05 -1.295226e-05 2.034686e-06 -7.884189e-06 -1.22260335e-05 1.2559939e-05

exp_avg_sq f4 [80, 20]
00000000: 2d8a 4430 e2d1 5430 2ac5 8f30 8f67 0f30
00000010: 652f 2f30 71ec 4e30 a4ec b32f 1a0c 1230
00000020: 0db5 722f c4cc 8230 67db a831 2ca7 6c30
00000030: bc66 d72f 7313 9531 1d6a 0230 f23a ff30
00000040: 53e2 4a31 627c 6531 8055 9a30 4f7b ad31
00000050: 0096 e630 1263 d72f 6eed f330 54cd cc30
00000060: c418 ff2f 132c 4331 a0ce 8a30 77c7 0730
00000070: 2099 c830 141e d931 d060 9131 b5fc 8e30
00000080: ed20 1131 f635 d231 1ddf df2f 37d7 1831
00000090: 75bc d930 9b91 3131 9952 3c30 aa49 e731
000000a0: 3507 7b2f 98cb 0e2f af09 4430 3570 1730
000000b0: 5115 0330 7480 7c30 309f cc2f 522a 902f
000000c0: 64ae 872f 5167 9a30 f293 e330 87dc fa2f
000000d0: 59c4 a92f f549 aa30 a6a2 3b2f 8aa6 5830
000000e0: f38b 2e30 7ff1 bc30 7836 bb2f 5bfa 0531
000000f0: a7aa 542e da29 412e be47 6e2e 57ba 302f
00000100: 50ac bd2f 5d19 4a2f 9c57 9d2f d5ab 9c2e
00000110: c69c f52d 5502 322f db3d 8930 f4cd 632f
00000120: 0624 732e 4917 4030 02fc 3d2e 639b fc2e
00000130: eb58 e02f fcce be30 5e7d 5f2f 16f2 3f30
00000140: 6177 b32f ff50 f12f 3d8d bc2f 3ff7 e72f
00000150: f21b 272f d075 0630 f6bc 1030 d7bc 9a2f
00000160: 3434 e82f aa32 4c30 7bd7 7530 3ed1 aa2f
00000170: fa83 3930 82dd a230 1bf9 552f 8aff 6030
00000180: f3ad 0c30 a9d8 fb2f c473 682f e8e1 b230
00000190: 6d9e 032f 5d60 3b2e 1141 902e 31d7 b42e
000001a0: e49b 202f 8f04 af2f d936 162f f0aa 832f
000001b0: 24e1 0c2f 82b4 a62f 86f9 872f 7800 9c2e
000001c0: 2c94 e62e 0252 b42f f13e 262e 5c12 0f2f
000001d0: 0f66 a32f 2810 b02f e5a5 a02e 7283 d82f
000001e0: 6645 5930 0d2e 5d30 3caf 9b30 f4bf 9a30
000001f0: 0dec 2930 7757 0d31 a6f2 6a30 fc5c d42f
00000200: d3f9 2830 5372 8431 7eff bd31 35fa 7330
00000210: e519 a930 0b56 af31 58a6 b52f 2ca2 f230
00000220: 8348 2631 36a5 6631 f31f 8e30 7eeb b131
00000230: 5b2e 802f d89c 2330 2015 ba2f a114 ee2f
00000240: e321 db2f f736 9630 ec7c c02f 1d88 eb2f
00000250: d786 c72f d006 d430 92db 8731 9dc1 9d2f
00000260: 818d 1c30 9dec 5631 e11b 5c2f e445 6330
00000270: d461 1a31 3e59 1231 e9d0 2f30 53f5 2e31
00000280: 9c49 2530 78ac 3e2e 95eb aa2e 5fd6 8f2f
00000290: f887 7d2e 57c3 1e2f ed45 7a2f 2933 0e2f
000002a0: 54d7 612f 76dc e62f 1617 bb2f 886b 272f
000002b0: a23f 2d2f 86a3 3330 ef7b 2b2e 30c1 d22e
000002c0: 734c 592f b6ae 882f 883d d72e ea50 1b30
000002d0: e106 d82f 6656 aa2f 6f85 5330 d9ef 7230
000002e0: ff4c ed2f 7c94 a230 ccba 9730 64a2 1f30
000002f0: 14b5 1d30 33cd 1831 5bc7 a531 27e2 7c30
00000300: f94e 4e30 9c79 cb30 0d3e 0130 4a0e af30
00000310: e188 4130 8a1b 7d31 c8e2 aa30 6aae 8731
00000320: 7345 be30 e9bb 4f30 2967 4731 a77d b530
00000330: c642 a22f d446 dc30 571e b430 6abf 7230
00000340: d3e6 3330 b074 0131 b8ee 6031 3f18 1530
00000350: c538 d630 e506 5b31 1647 1630 3609 7d31
00000360: 687e 6831 56a2 7b30 253b d32f 87c0 8331
00000370: 84c0 b830 5e22 e12f 11bd bc30 1d7a 0e31
00000380: 2aab 962f 1bbc 2531 d832 b230 a517 4a30
00000390: a1b5 7830 db9f 9931 cc09 2b31 2ee9 af30
000003a0: 6be5 ec30 5657 0231 9b70 3430 354b c530
000003b0: ad12 8530 d4a0 da30 7b17 2d30 59c4 5f31
000003c0: bd62 012f 8a10 e42f 53b8 4a2f df03 962f
000003d0: 5708 2b2f 2c7a 0030 ac80 412f 716f 7f2f
000003e0: 31fc b52e bcb9 9c30 9a26 f030 c7ad 0130
000003f0: 0249 852f a0f7 4130 98ce 8b2f 2d1e 0230
7.1500744e-10 7.742341e-10 1.0460657e-09 5.217026e-10 6.373198e-10 7.5278367e-10 3.2728054e-10 5.313169e-10
2.2074094e-10 9.516943e-10 4.9143867e-09 8.6093865e-10 3.918127e-10 4.338682e-09 4.744452e-10 1.8570445e-09
2.952352e-09 3.339459e-09 1.1229275e-09 5.0489812e-09 1.6777335e-09 3.9178666e-10 1.7748059e-09 1.4901311e-09
4.6401827e-10 2.8401288e-09 1.0099548e-09 4.939617e-10 1.4595436e-09 6.3189507e-09 4.2310617e-09 1.0403683e-09
2.1118993e-09 6.117939e-09 4.0721995e-10 2.2241247e-09 1.5842391e-09 2.5839657e-09 6.851138e-10 6.7313595e-09
2.2830877e-10 1.2987156e-10 7.1318146e-10 5.5092936e-10 4.7687815e-10 9.185961e-10 3.7220493e-10 2.6223518e-10
2.468027e-10 1.1234339e-09 1.6558472e-09 4.563143e-10 3.0880434e-10 1.2390148e-09 1.7065335e-10 7.881701e-10
6.349971e-10 1.3747438e-09 3.4053804e-10 1.9496358e-09 4.835479e-11 4.392029e-11 5.4178655e-11 1.6073308e-10
3.4501335e-10 1.8380804e-10 2.8620384e-10 7.124582e-11 2.7922897e-11 1.6189834e-10 9.985642e-10 2.0718699e-10
5.52838e-11 6.9882283e-10 4.3197453e-11 1.14872355e-10 4.0808543e-10 1.3883148e-09 2.0326271e-10 6.982942e-10
3.2644734e-10 4.3895196e-10 3.4297357e-10 4.2194334e-10 1.519849e-10 4.891634e-10 5.2655424e-10 2.8146616e-10
4.2237647e-10 7.4286766e-10 8.9436697e-10 3.1071495e-10 6.749016e-10 1.1850008e-09 1.9460737e-10 8.185387e-10
5.11789e-10 4.581058e-10 2.1141405e-10 1.3015411e-09 1.1970665e-10 4.2604465e-11 6.55992e-11 8.223678e-11
1.4607299e-10 3.1835554e-10 1.3661906e-10 2.395022e-10 1.2812912e-10 3.0323483e-10 2.4733654e-10 7.094142e-11
1.048551e-10 3.280008e-10 3.7799933e-11 1.3012297e-10 2.9722044e-10 3.2025693e-10 7.3054264e-11 3.938357e-10
7.904276e-10 8.0464774e-10 1.1327539e-09 1.1259531e-09 6.181729e-10 2.0567918e-09 8.547353e-10 3.8628645e-10
6.1473066e-10 3.854703e-09 5.52967e-09 8.875845e-10 1.2303728e-09 5.1029523e-09 3.3041903e-10 1.765391e-09
2.4197397e-09 3.3563317e-09 1.034094e-09 5.1781504e-09 2.3316002e-10 5.9521943e-10 3.3848213e-10 4.3306606e-10
3.9859946e-10 1.0929558e-09 3.501336e-10 4.2842965e-10 3.6293699e-10 1.5426966e-09 3.9539794e-09 2.8695704e-10
5.695356e-10 3.1275598e-09 2.0018788e-10 8.268144e-10 2.2465558e-09 2.1296525e-09 6.396151e-10 2.5459783e-09
6.0131256e-10 4.335418e-11 7.772553e-11 2.6163868e-10 5.7646304e-11 1.4439415e-10 2.276221e-10 1.2933e-10
2.0540131e-10 4.1993403e-10 3.4031505e-10 1.5226764e-10 1.5756865e-10 6.53522e-10 3.8990974e-11 9.5840114e-11
1.9763195e-10 2.4862395e-10 9.787998e-11 5.650366e-10 3.929506e-10 3.098421e-10 7.6950973e-10 8.837993e-10
4.3164758e-10 1.1829253e-09 1.1039787e-09 5.8074634e-10 5.7373595e-10 2.2235553e-09 4.824796e-09 9.199845e-10
7.505459e-10 1.4804757e-09 4.7018106e-10 1.2736987e-09 7.040751e-10 3.6832e-09 1.2433583e-09 3.9488457e-09
1.3844058e-09 7.55732e-10 2.901695e-09 1.3205196e-09 2.9515074e-10 1.6027237e-09 1.3105347e-09 8.8311103e-10
6.544784e-10 1.88383e-09 3.2731986e-09 5.424034e-10 1.5586684e-09 3.1872613e-09 5.46707e-10 3.6821581e-09
3.3832297e-09 9.154396e-10 3.84227e-10 3.8344896e-09 1.3442478e-09 4.095168e-10 1.3732536e-09 2.0733133e-09
2.740646e-10 2.4117586e-09 1.2965655e-09 7.3520773e-10 9.0479985e-10 4.4710595e-09 2.4889344e-09 1.27992e-09
1.7236464e-09 1.8967135e-09 6.564364e-10 1.4355012e-09 9.682332e-10 1.5907298e-09 6.29704e-10 3.2562382e-09
1.176756e-10 4.148471e-10 1.8437278e-10 2.7287592e-10 1.5555322e-10 4.6739745e-10 1.7598961e-10 2.3231707e-10
8.275725e-11 1.1403283e-09 1.747327e-09 4.717688e-10 2.4244434e-10 7.056489e-10 2.5430746e-10 4.7336607e-10
