experiments/BiDirectional_MD/u4eub13q/checkpoints/epoch=2.ckpt (torch, 77349 bytes, 30 tensors)

exp_avg f4 [80, 4]
0	0xb87de6a0	-6.0534687e-05
1	0x37f86bc0	2.9614079e-05
2	0x3870cf8a	5.7413745e-05
3	0x385f82e2	5.3289237e-05
4	0xb7c29631	-2.319654e-05
5	0xb6807ce5	-3.829237e-06
6	0x3780b476	1.5342823e-05
7	0xb6a1a3f4	-4.8172606e-06
8	0xb59a3c6b	-1.1491478e-06
9	0xb8022562	-3.102923e-05
10	0x381682ea	3.588471e-05
11	0x37e83bf5	2.7684475e-05
12	0x37fa0b50	2.980759e-05
13	0x37a94f7b	2.0183381e-05
14	0xb75f70ba	-1.3318082e-05
15	0x37c3dd5e	2.3348894e-05
16	0xb733bb75	-1.0712877e-05
17	0xb770a9ca	-1.4344647e-05
18	0x3838bb1d	4.404328e-05
19	0x37af3f7f	2.0891193e-05
20	0x35c6d03c	1.4812754e-06
21	0x37fe6ac4	3.0328876e-05
22	0x381c3353	3.7241098e-05
23	0xb7eed829	-2.8472468e-05
24	0x379f1958	1.8966079e-05
25	0x3845cd29	4.715953e-05
26	0x38277355	3.9923314e-05
27	0xb7dc6a76	-2.6275618e-05
28	0xb831b4da	-4.236852e-05
29	0x36605d3c	3.343287e-06
30	0x3897e728	7.243297e-05
31	0x3828a236	4.0205392e-05
32	0x374ed1fd	1.23274485e-05
33	0xb7df6155	-2.6628995e-05
34	0xb6016adf	-1.9284705e-06
35	0xb55b9641	-8.1802506e-07
36	0xb796420f	-1.7912154e-05
37	0x377646da	1.4679239e-05
38	0xb7dde365	-2.6451142e-05
39	0xb7da1f5d	-2.600223e-05
40	0x375ddd12	1.3224098e-05
41	0xb6995bdc	-4.570449e-06
42	0xb91fd788	-0.00015243713
43	0xb8679df8	-5.522181e-05
44	0xb6885d0c	-4.063948e-06
45	0x37fb1120	2.9929506e-05
46	0xb61233e8	-2.1785909e-06
47	0xb7aa5130	-2.0303385e-05
48	0x35e487fa	1.7026898e-06
49	0x383ac1c7	4.4526325e-05
50	0xb823b0bc	-3.9026825e-05
51	0xb84bae88	-4.8561516e-05
52	0xb8039d0c	-3.1379095e-05
53	0x37bf8d56	2.2834789e-05
54	0x38af9032	8.371509e-05
55	0x3835dec4	4.336123e-05
56	0x364d1b7d	3.056338e-06
57	0x3470cfcc	2.2427338e-07
58	0xb6bd1214	-5.6347435e-06
59	0xb7a6955d	-1.9858295e-05
60	0x36fdc31e	7.562702e-06
61	0x37a6f0f4	1.9900945e-05
62	0xb7abcdd2	-2.0480631e-05
63	0xb7e7be36	-2.762592e-05
64	0x36c0034d	5.72243e-06
65	0x36b9720b	5.526706e-06
66	0xb7e0b7ec	-2.6788526e-05
67	0xb80b2e5f	-3.318337e-05
68	0x37ec335e	2.8157312e-05
69	0x37e4160c	2.7189984e-05
70	0x3842eefa	4.647577e-05
71	0x3807d585	3.2385364e-05
72	0xb80ab2ab	-3.306816e-05
73	0x3837b93f	4.3803124e-05
74	0x373934b8	1.1039134e-05
75	0x38bd31f7	9.021529e-05
76	0xb63df504	-2.8305813e-06
77	0x37a7e134	2.001282e-05
78	0x37510ef8	1.2460856e-05
79	0x37b5bf39	2.1665926e-05
80	0xb7ca4885	-2.4114046e-05
81	0x37a5db1a	1.977156e-05
82	0x37a8972a	2.0097552e-05
83	0xb73c0d81	-1.1208817e-05
84	0xb79e9a0a	-1.8906798e-05
85	0xb797a38e	-1.8076764e-05
86	0x37b01bde	2.0993812e-05
87	0x37f750be	2.9482293e-05
88	0xb7a04aec	-1.9108375e-05
89	0xb7c9c5c1	-2.4053154e-05
90	0x36cfc2a9	6.191742e-06
91	0x36e54621	6.832896e-06
92	0xb5f330a1	-1.8119064e-06
93	0xb7071ee9	-8.053824e-06
94	0xb722d77e	-9.706126e-06
95	0x38169487	3.5901114e-05
96	0xb57d0569	-9.425772e-07
97	0xb7adc2eb	-2.0713973e-05
98	0x38a69ef2	7.945103e-05
99	0x3888ff46	6.532534e-05
100	0x375c13fc	1.3117675e-05
101	0x365df63f	3.30749e-06
102	0x382d5e7d	4.1334413e-05
103	0x379bbfe1	1.856679e-05
104	0x37a04461	1.9105328e-05
105	0x38542226	5.0576542e-05
106	0x37b8347e	2.1958953e-05
107	0xb82470f6	-3.920585e-05
108	0xb7da6219	-2.6033305e-05
109	0xb8402777	-4.581312e-05
110	0x38c2615c	9.2687755e-05
111	0x3813359e	3.5097466e-05
112	0x369411a8	4.412799e-06
113	0xb88a3e38	-6.591942e-05
114	0x3818cbd7	3.6429465e-05
115	0x37fa4a4a	2.9836916e-05
116	0xb72ae36a	-1.0185739e-05
117	0xb7912b73	-1.730558e-05
118	0xb58b75ca	-1.0390588e-06
119	0xb7266241	-9.917248e-06
120	0xb7710bbe	-1.4367453e-05
121	0xb718926e	-9.093999e-06
122	0xb9191fda	-0.00014603083
123	0xb7b5e048	-2.168132e-05
124	0xb78fa478	-1.7123515e-05
125	0x37e636e8	2.7443704e-05
126	0x36c5944d	5.888322e-06
127	0xb82dbae3	-4.1420466e-05
128	0xb7e2ccf1	-2.7036733e-05
129	0x379b3900	1.8503983e-05
130	0xb752b0e6	-1.2558163e-05
131	0xb7c49fbb	-2.3439401e-05
132	0xb70d19b9	-8.410244e-06
133	0x382211ba	3.864032e-05
134	0x38a613fd	7.91922e-05
135	0x38022627	3.1029947e-05
136	0x35d3739e	1.5754374e-06
137	0xb6e6a3ae	-6.873589e-06
138	0xb53a4d36	-6.9402756e-07
139	0xb79de5ab	-1.8822806e-05
140	0x378d4c66	1.6844086e-05
141	0x371dd3ce	9.407244e-06
142	0xb7a9e1b9	-2.025148e-05
143	0xb82c7332	-4.111528e-05
144	0xb6aa26ba	-5.070903e-06
145	0xb70bac86	-8.325214e-06
146	0xb77e2929	-1.5149163e-05
147	0xb7b0529a	-2.10193e-05
148	0x37e36b1c	2.7110385e-05
149	0x3807495a	3.2254822e-05
150	0x38171ba1	3.6026937e-05
151	0x37b12896	2.1118944e-05
152	0x3730ca2b	1.0537488e-05
153	0x37e0e708	2.6810463e-05
154	0x35d80067	1.6093371e-06
155	0x38945aa6	7.0740745e-05
156	0xb6e1aba5	-6.7255046e-06
157	0x3681c3a0	3.8672733e-06
158	0x37675d13	1.37903435e-05
159	0x37d4580d	2.5313371e-05
160	0xb9b466c4	-0.00034408842
161	0x399f4f2e	0.00030385837
162	0x39c7624d	0.00038029478
163	0x39eff3c8	0.00045767264
164	0xb890d03e	-6.905243e-05
165	0xb8252dbd	-3.9381663e-05
166	0xb7629622	-1.3505605e-05
167	0xb8a9511e	-8.073657e-05
168	0x3936ceb0	0.0001743387
169	0x396f4ac0	0.00022820663
170	0x3949ecfd	0.00019257139
171	0x38e34565	0.00010837129
172	0x38a5c000	7.903576e-05
173	0x39404daa	0.00018339479
174	0xb681092f	-3.8455687e-06
175	0xb9683028	-0.00022143184
176	0xb70d4dca	-8.422367e-06
177	0xb918def9	-0.00014578913
178	0xb8f0a909	-0.00011475577
179	0xb7af30f2	-2.0884418e-05
180	0x38ce391f	9.833485e-05
181	0xb842f7c9	-4.6483972e-05
182	0x395c59fd	0.00021014358
183	0x392d2cdb	0.00016515276
184	0xb8bd6b2b	-9.032184e-05
185	0xb9b56931	-0.00034601384
186	0x3871fb3b	5.7692854e-05
187	0x38da2b89	0.00010403159
188	0xb6077bc2	-2.0188604e-06
189	0xb99b74b2	-0.0002965085
190	0xb9006e36	-0.00012248088
191	0x3835a6b2	4.330901e-05
192	0xb901b4f7	-0.00012369813
193	0x38f03206	0.000114534094
194	0xb9227eb8	-0.0001549673
195	0xb975ea19	-0.00023452229
196	0x3966525e	0.00021965193
197	0xb988f0f5	-0.00026119468
198	0xb924caa7	-0.00015715753
199	0x39a66b07	0.0003174173
200	0xb71da6bf	-9.396753e-06
201	0x3a926d12	0.0011171422
202	0xb933367a	-0.00017091064
203	0xb9b944c4	-0.00035337184
204	0xb920c711	-0.00015332947
205	0xb9bdd62a	-0.00036208454
206	0xb7a9a5c4	-2.022356e-05
207	0x36eb9f73	7.022108e-06
208	0xb80c37e5	-3.3430657e-05
209	0xb94b036a	-0.0001936086
210	0xb9795459	-0.00023777912
211	0xb9fdd1e1	-0.00048412292
212	0x398534de	0.00025407126
213	0x349abedb	2.88236e-07
214	0xb8ed0feb	-0.000113040056
215	0xb955f736	-0.00020405356
216	0xb914c100	-0.00014186278
217	0x38b829e4	8.7816064e-05
218	0x38ba0998	8.870958e-05
219	0x389e59b5	7.550736e-05
220	0x384be1d0	4.8609276e-05
221	0x38a5efc1	7.912471e-05
222	0xb8351c63	-4.31802e-05
223	0xb9026c8e	-0.00012438206
224	0xb88c10d4	-6.678855e-05
225	0x38fb52bb	0.000119840224
226	0x38f2b75a	0.00011573611
227	0xb5ebc5b2	-1.7566401e-06
228	0x38e86648	0.000110816734
229	0x38060e42	3.196137e-05
230	0xb8b053bb	-8.40793e-05
231	0x385db351	5.2857507e-05
232	0xba100c11	-0.0005494962
233	0xb98e9db9	-0.00027201863
234	0xb73f8d94	-1.1417451e-05
235	0xb8ed1898	-0.000113056216
236	0x3912a16e	0.00013983782
237	0x38a89278	8.038146e-05
238	0xb72ed6ff	-1.0421266e-05
239	0x37c13caa	2.3035642e-05
240	0xb7f7ba85	-2.953155e-05
241	0x3803c424	3.1415504e-05
242	0x38227233	3.8730166e-05
243	0x3738501a	1.0985905e-05
244	0xb6c25466	-5.791476e-06
245	0x377273e1	1.4451304e-05
246	0x37987b0c	1.817711e-05
247	0x37511622	1.2462524e-05
248	0xb7724a88	-1.4441677e-05
249	0xb8155a40	-3.560842e-05
250	0x38527415	5.017601e-05
251	0x38511c7e	4.985602e-05
252	0x37b4fcd5	2.1575406e-05
253	0x37626a9e	1.34954735e-05
254	0xb6d5bd1e	-6.369911e-06
255	0x377e98c5	1.5175149e-05

exp_avg_sq f4 [80, 4]
0	0x334f05be	4.8201166e-08
1	0x33164b0f	3.4992862e-08
2	0x34802d57	2.3874847e-07
3	0x3504f2af	4.9526983e-07
4	0x30ca72bc	1.4730044e-09
5	0x30989460	1.1101626e-09
6	0x307d7902	9.2212826e-10
7	0x310b4416	2.0265865e-09
8	0x3276aff3	1.4359091e-08
9	0x33a14dfe	7.5113334e-08
10	0x31c62383	5.7665956e-09
11	0x3231447e	1.0318329e-08
12	0x32db6894	2.5542512e-08
13	0x3320ecc9	3.7468258e-08
14	0x3211a9cb	8.478717e-09
15	0x32cb366d	2.365706e-08
16	0x31668dd4	3.3550025e-09
17	0x32a538a7	1.923429e-08
18	0x32201cf1	9.319806e-09
19	0x31d7cb41	6.280431e-09
20	0x32830c74	1.525607e-08
21	0x32f5c778	2.8612462e-08
22	0x32e89486	2.7075895e-08
23	0x322e5563	1.0147548e-08
24	0x32191245	8.909926e-09
25	0x32c91c9d	2.3412492e-08
26	0x32157952	8.7005265e-09
27	0x337766d1	5.760268e-08
28	0x33be3491	8.857126e-08
29	0x34822021	2.4237764e-07
30	0x33985333	7.0931854e-08
31	0x3421aa2b	1.50562e-07
32	0x3297ded9	1.7680053e-08
33	0x3245c42d	1.1511514e-08
34	0x318ff871	4.1900923e-09
35	0x31939b19	4.2958956e-09
36	0x323b100d	1.0888482e-08
37	0x31cc37c2	5.9435203e-09
38	0x3223bfe5	9.5314805e-09
39	0x329c38e5	1.8186663e-08
40	0x34980143	2.8313124e-07
41	0x336ce9e1	5.5160744e-08
42	0x342342ec	1.5204904e-07
43	0x3372b646	5.6510792e-08
44	0x33c79797	9.294234e-08
45	0x32d0251f	2.4231268e-08
46	0x33e52ee3	1.0672172e-07
47	0x3472174c	2.2546482e-07
48	0x31fbb180	7.325241e-09
49	0x334fd21a	4.838703e-08
50	0x32093636	7.986776e-09
51	0x336f877c	5.5769746e-08
52	0x33065220	3.1274e-08
53	0x32107cae	8.410252e-09
54	0x339b2b13	7.225585e-08
55	0x331600cb	3.4925318e-08
56	0x30b9d95e	1.3522301e-09
57	0x3142164e	2.8243394e-09
58	0x3117328c	2.2002125e-09
59	0x315069a3	3.0328031e-09
60	0x31c2ba12	5.667297e-09
61	0x3213e8a9	8.609427e-09
62	0x3166b358	3.357135e-09
63	0x3124e99d	2.3997935e-09
64	0x32948c16	1.7293171e-08
65	0x32e85920	2.7048884e-08
66	0x32d0cc37	2.4307253e-08
67	0x3264eb83	1.3324896e-08
68	0x3251b270	1.2205973e-08
69	0x31eb5d36	6.849997e-09
70	0x33bfb051	8.926202e-08
71	0x3368f427	5.4238765e-08
72	0x334bd2e7	4.7456435e-08
73	0x3297deb1	1.7679982e-08
74	0x32c2457f	2.2616176e-08
75	0x32821d38	1.5147279e-08
76	0x31ab0a50	4.9779274e-09
77	0x31b9ad1c	5.403889e-09
78	0x32085c76	7.937265e-09
79	0x32107425	8.408311e-09
80	0x325a3613	1.2701565e-08
81	0x3283f516	1.536186e-08
82	0x34715b60	2.2478116e-07
83	0x34d4e66e	3.9655737e-07
84	0x30c38d95	1.4228357e-09
85	0x30c925a0	1.4635368e-09
86	0x30b8f071	1.34561e-09
87	0x3147e5a0	2.9088838e-09
88	0x32223b9e	9.4431964e-09
89	0x333160f4	4.1299202e-08
90	0x31840f9c	3.84348e-09
91	0x3221d02c	9.418766e-09
92	0x330c58bc	3.2676994e-08
93	0x332412a1	3.820117e-08
94	0x324fc66f	1.2094104e-08
95	0x3329fd5d	3.957881e-08
96	0x31f1b9dd	7.0351533e-09
97	0x32e8e3aa	2.7111884e-08
98	0x326bc8b3	1.3724434e-08
99	0x330ed260	3.3253286e-08
100	0x31d076ef	6.067118e-09
101	0x32c598d7	2.3003322e-08
102	0x324c2b80	1.1884254e-08
103	0x31d1be27	6.1043184e-09
104	0x32da5064	2.5415098e-08
105	0x32a428b9	1.9110631e-08
106	0x320f2361	8.33174e-09
107	0x33be577c	8.863478e-08
108	0x331b551c	3.6166156e-08
109	0x3406d8c6	1.2558584e-07
110	0x339d9d92	7.339544e-08
111	0x33bb931c	8.734625e-08
112	0x329c4c08	1.8195365e-08
113	0x3274235d	1.421071e-08
114	0x324fca99	1.2095051e-08
115	0x3319d680	3.5818175e-08
116	0x32188b29	8.879206e-09
117	0x3209f8df	8.031036e-09
118	0x3275cdc9	1.4307667e-08
119	0x32f170d7	2.8107406e-08
120	0x345e39d7	2.0696403e-07
121	0x3373a2db	5.6725963e-08
122	0x34ec638d	4.4030858e-07
123	0x3491d087	2.7160078e-07
124	0x333a1d04	4.333289e-08
125	0x3256126d	1.2460629e-08
126	0x33e8ddee	1.08437106e-07
127	0x33887159	6.353611e-08
128	0x320b40b2	8.105575e-09
129	0x33682680	5.4051725e-08
130	0x328f0fce	1.6654578e-08
131	0x33fda736	1.1811646e-07
132	0x33048215	3.0851954e-08
133	0x32237209	9.513777e-09
134	0x3406c7e9	1.255245e-07
135	0x33e0b76a	1.0464176e-07
136	0x30e5bc47	1.6715455e-09
137	0x31334653	2.6087903e-09
138	0x312ead7d	2.541895e-09
139	0x31b45183	5.2479563e-09
140	0x31f4cfef	7.124974e-09
141	0x321e1593	9.201716e-09
142	0x312a1100	2.474792e-09
143	0x3126ff1f	2.4301199e-09
144	0x324646d3	1.154122e-08
145	0x32dd5db1	2.5770392e-08
146	0x3292e736	1.710178e-08
147	0x324a3807	1.1770687e-08
148	0x32765437	1.4338233e-08
149	0x316bc522	3.4309058e-09
150	0x33b5973d	8.4559794e-08
151	0x332522e5	3.8448793e-08
152	0x32ef0141	2.7823832e-08
153	0x330c68f2	3.2691737e-08
154	0x3283ae79	1.5329748e-08
155	0x3223eb12	9.5412975e-09
156	0x313aa0ce	2.715797e-09
157	0x31b3f8a1	5.2378515e-09
158	0x323f677c	1.1141193e-08
159	0x320652fd	7.818696e-09
160	0x3646f226	2.9645248e-06
161	0x35926d7a	1.090971e-06
162	0x36c651ee	5.9103977e-06
163	0x369f0941	4.7396466e-06
164	0x344852df	1.86566e-07
165	0x34bde225	3.5368535e-07
166	0x33e9b616	1.0883029e-07
167	0x354e3b26	7.682705e-07
168	0x34ce4c08	3.842581e-07
169	0x34905f8f	2.6891618e-07
170	0x3488ff5c	2.5517772e-07
171	0x3471e620	2.2528593e-07
172	0x364b094b	3.0254766e-06
173	0x357285ba	9.0346623e-07
174	0x35360aa0	6.7815745e-07
175	0x35912980	1.081542e-06
176	0x353f2842	7.121163e-07
177	0x3498bfba	2.8451706e-07
178	0x3677f743	3.6949793e-06
179	0x36509b5a	3.1084842e-06
180	0x34b7ab44	3.4211018e-07
181	0x35c4cdb0	1.4663001e-06
182	0x34adb94b	3.235858e-07
183	0x351ff85f	5.9593543e-07
184	0x358a366a	1.0297638e-06
185	0x34d8a1d2	4.0350875e-07
186	0x35b69434	1.360319e-06
187	0x3624e18b	2.4569188e-06
188	0x35770bab	9.203165e-07
189	0x3696c65d	4.493441e-06
190	0x36b782bc	5.4690445e-06
191	0x368a1390	4.114998e-06
192	0x35db4b1c	1.6338631e-06
193	0x35708537	8.960082e-07
194	0x3570130f	8.94347e-07
195	0x35d9137b	1.617343e-06
196	0x35a2f6c3	1.2141758e-06
197	0x36422a37	2.8932825e-06
198	0x348e671d	2.6524586e-07
199	0x35849f59	9.881143e-07
200	0x373cad74	1.1246058e-05
201	0x375dd48c	1.3222114e-05
202	0x36f9db8d	7.4463373e-06
203	0x3762467f	1.3487063e-05
204	0x36399b3d	2.7657509e-06
205	0x3797e1e6	1.8105795e-05
206	0x37106d04	8.608451e-06
207	0x377b3841	1.49738635e-05
208	0x35db1261	1.632212e-06
209	0x353969e8	6.9071984e-07
210	0x360313a2	1.953195e-06
211	0x35d5d986	1.5933044e-06
212	0x354ff9b5	7.747688e-07
213	0x34c0636e	3.5835131e-07
214	0x350474c1	4.934373e-07
215	0x348c54bb	2.6138682e-07
216	0x3492fee3	2.7380074e-07
217	0x341c7f02	1.4574837e-07
218	0x351128db	5.407616e-07
219	0x354bef0e	7.5971263e-07
220	0x3353248d	4.916051e-08
221	0x3469e9f5	2.1784929e-07
222	0x33c1655f	9.005702e-08
223	0x33372e4e	4.265012e-08
224	0x34f6c461	4.5963955e-07
225	0x342fb22c	1.6362964e-07
226	0x350dce22	5.2826556e-07
227	0x347a83cd	2.3331013e-07
228	0x344b6bf3	1.894512e-07
229	0x3475a941	2.2878977e-07
230	0x33905e5b	6.722686e-08
231	0x34beaa76	3.5514284e-07
232	0x362baf6f	2.5583101e-06
233	0x365172b9	3.1210204e-06
234	0x351db17c	5.874533e-07
235	0x35a851e0	1.2540804e-06
236	0x348de164	2.642729e-07
237	0x3414630d	1.3819609e-07
238	0x340482f5	1.23411e-07
239	0x33df11ee	1.0387508e-07
240	0x326d85cf	1.382564e-08
241	0x32a5ad77	1.928741e-08
242	0x3483fcca	2.458458e-07
243	0x35114079	5.411053e-07
244	0x311b0d70	2.2563107e-09
245	0x31149f5f	2.1627427e-09
246	0x318fce58	4.1853063e-09
247	0x32bffc1a	2.2349969e-08
248	0x330823b4	3.169744e-08
249	0x3412753a	1.3639956e-07
250	0x323f21f9	1.1125388e-08
251	0x333d6e2d	4.4105196e-08
252	0x321d6ff7	9.164061e-09
253	0x323ab4b7	1.0867715e-08
254	0x3130040c	2.5613671e-09
255	0x3253da69	1.2331477e-08

exp_avg f4 [80, 20]
0	0x36b97f98	5.5282835e-06
1	0x36fc013b	7.5103285e-06
2	0x358bf2bc	1.0426952e-06
3	0xb5ad1d69	-1.2898064e-06
4	0xb6d7057c	-6.408138e-06
5	0x344fe5b6	1.9361946e-07
6	0x35d01790	1.5504065e-06
7	0xb6f5c9ff	-7.3250844e-06
8	0xb655ba7f	-3.1848028e-06
9	0x378ba6f0	1.6647828e-05
10	0xb786a4ee	-1.6050846e-05
11	0xb68cd7ce	-4.197448e-06
12	0x3597b0f5	1.1301878e-06
13	0xb6e4fbb2	-6.8242307e-06
14	0xb6ed39b3	-7.0698675e-06
15	0x3714374b	8.834361e-06
16	0xb623fac7	-2.4434864e-06
17	0x36cc486b	6.0881043e-06
18	0x3707229f	8.054688e-06
19	0x376838f0	1.3841534e-05
20	0x350f0f58	5.329398e-07
21	0xb54c3152	-7.606769e-07
22	0xb5450093	-7.3389054e-07
23	0x36a07d7a	4.782979e-06
24	0x351d360c	5.8565706e-07
25	0xb638823d	-2.7493945e-06
26	0xb6361d4f	-2.7137173e-06
27	0xb6353eeb	-2.7007725e-06
28	0xb624ae1e	-2.4539254e-06
29	0xb4d9bf07	-4.055839e-07
30	0x3530ae68	6.5818904e-07
31	0xb60f2cd8	-2.1334763e-06
32	0xb63149f7	-2.6418109e-06
33	0x35ae4193	1.2983095e-06
34	0xb55da9a8	-8.25758e-07
35	0x349ed97e	2.958804e-07
36	0x364d9b6d	3.063785e-06
37	0x35a30ce7	1.2148201e-06
38	0xb5f872d5	-1.851086e-06
39	0x362a4146	2.5369968e-06
40	0x36a940d7	5.044141e-06
41	0xb48491f9	-2.4693125e-07
42	0xb635b149	-2.7074295e-06
43	0x36079863	2.0205268e-06
44	0x313b49da	2.7254061e-09
45	0xb68c140e	-4.17466e-06
46	0x345fd68c	2.0846545e-07
47	0xb42e65fb	-1.6242113e-07
48	0xb611009c	-2.1607038e-06
49	0xb6829b74	-3.892399e-06
50	0xb65af208	-3.2625412e-06
51	0xb654214a	-3.1609839e-06
52	0x357c2f08	9.3945755e-07
53	0xb6f05270	-7.1621544e-06
54	0xb4d3d981	-3.9460068e-07
55	0x358baf4f	1.0407329e-06
56	0x3534ea79	6.739643e-07
57	0x362abfeb	2.5443685e-06
58	0x3529fa36	6.332151e-07
59	0x36f4bb11	7.293544e-06
60	0xb681b565	-3.8656167e-06
61	0x36088591	2.0343325e-06
62	0xb65934ca	-3.2366247e-06
63	0x36c45176	5.8507385e-06
64	0xb68d45b3	-4.2102415e-06
65	0xb6d7c64e	-6.430585e-06
66	0xb6bd7f3d	-5.6474514e-06
67	0x36647a67	3.4045895e-06
68	0xb6af2a55	-5.2203345e-06
69	0xb75ab307	-1.3035496e-05
70	0xb6957963	-4.4546773e-06
71	0x36f0b86f	7.1740283e-06
72	0xb618a6e9	-2.274692e-06
73	0xb6c8c193	-5.9829995e-06
74	0xb55e5af2	-8.283379e-07
75	0x3696dbaf	4.495923e-06
76	0xb71bf98d	-9.296823e-06
77	0x365b6d3b	3.2697124e-06
78	0x36eedf57	7.118953e-06
79	0x36b81dd0	5.487098e-06
80	0x3635b8dc	2.7078704e-06
81	0x35a9c27a	1.2648081e-06
82	0xb63465ac	-2.688127e-06
83	0x36785e45	3.7009752e-06
84	0xb6012148	-1.924187e-06
85	0x3612e5cd	2.1889457e-06
86	0xb68c7e23	-4.1870094e-06
87	0xb5e60b9c	-1.7139714e-06
88	0xb58e4bd5	-1.0601894e-06
89	0xb591dea3	-1.0868138e-06
90	0xb702b42e	-7.790555e-06
91	0xb655b55c	-3.1845038e-06
92	0x357a211a	9.3180427e-07
93	0xb70c5bfb	-8.366066e-06
94	0xb600af51	-1.9175534e-06
95	0x363e2043	2.8330985e-06
96	0xb6464b96	-2.9548296e-06
97	0x3716eaed	8.995395e-06
98	0x3638bc13	2.752761e-06
99	0x371a5baf	9.200462e-06
100	0xb7018dd7	-7.722024e-06
101	0x36729ca6	3.6151991e-06
102	0xb6a6c8cb	-4.970561e-06
103	0x37128c62	8.734964e-06
104	0xb6f5086e	-7.3025503e-06
105	0x3772ca7b	1.4471468e-05
106	0xb6fbcbe4	-7.504119e-06
107	0x36985830	4.5402194e-06
108	0xb424ba86	-1.5341547e-07
109	0x37046938	7.892311e-06
110	0xb7fbf98d	-3.0037738e-05
111	0x35bc9d85	1.4052936e-06
112	0xb72b774d	-1.0220171e-05
113	0xb6c73409	-5.93672e-06
114	0xb5efc602	-1.7864515e-06
115	0x343ecd5a	1.7769835e-07
116	0xb7407bfc	-1.1472959e-05
117	0x376edbe2	1.4237101e-05
118	0x35a79997	1.248717e-06
119	0x36e9cf43	6.9680696e-06
120	0xb5f22949	-1.8042421e-06
121	0xb4eb0813	-4.3778036e-07
122	0x35aaddb2	1.2730509e-06
123	0x362fb584	2.6182688e-06
124	0xb7143a11	-8.835007e-06
125	0x3696d7c9	4.495469e-06
126	0xb7456975	-1.1766669e-05
127	0x36c9e7ed	6.0172665e-06
128	0x36089e2f	2.0357654e-06
129	0x3685de49	3.9895863e-06
130	0xb6da2925	-6.501696e-06
131	0xb66c2588	-3.5188586e-06
132	0xb700dc82	-7.6807355e-06
133	0xb6cd9e04	-6.1278715e-06
134	0x364fb72a	3.095202e-06
135	0xb4e0ae1f	-4.184994e-07
136	0xb6f02c58	-7.1577197e-06
137	0x3774dd88	1.4595113e-05
138	0x3703fb1f	7.866677e-06
139	0x367ab5ac	3.735865e-06
140	0x374c50b7	1.217814e-05
141	0xb698e8c5	-4.557051e-06
142	0x36cb8fc9	6.0666102e-06
143	0xb67cee7f	-3.768975e-06
144	0x36127084	2.1821188e-06
145	0xb69ed302	-4.7333315e-06
146	0x3615a382	2.2297904e-06
147	0xb7b9afd6	-2.2135599e-05
148	0x3530b1ee	6.582403e-07
149	0x36bcb188	5.623504e-06
150	0x37995ed2	1.8283175e-05
151	0xb58ad217	-1.0342945e-06
152	0xb62460c8	-2.4494238e-06
153	0x37260e1f	9.897659e-06
154	0xb5f3215a	-1.8114617e-06
155	0xb6aeb4bc	-5.2066443e-06
156	0x37e74cdc	2.7573136e-05
157	0xb7301ac1	-1.0496647e-05
158	0x35ab782c	1.2775467e-06
159	0x32bd9d9f	2.2074174e-08
160	0x35284c2e	6.2695733e-07
161	0xb62a903c	-2.541593e-06
162	0xb5de0cd3	-1.6544021e-06
163	0x36810727	3.8453322e-06
164	0x35429536	7.248776e-07
165	0x33b4722b	8.40267e-08
166	0x32d377a9	2.4618048e-08
167	0xb68a515c	-4.122192e-06
168	0xb59b51c4	-1.1572197e-06
169	0xb6365239	-2.7167973e-06
170	0x36c44d92	5.8502856e-06
171	0x36bfe1ec	5.7185443e-06
172	0xb44c63b9	-1.903526e-07
173	0x3626bbf0	2.4845322e-06
174	0x34f3ee28	4.543556e-07
175	0xb58fb821	-1.0707919e-06
176	0x3659ae20	3.2436874e-06
177	0xb6ce635a	-6.1508445e-06
178	0xb6b111cb	-5.2770824e-06
179	0xb62f89a7	-2.6157156e-06
180	0x36072c3a	2.014231e-06
181	0xb6996e11	-4.5725687e-06
182	0x35918925	1.0843256e-06
183	0xb54812af	-7.4532994e-07
184	0x36681169	3.4580828e-06
185	0xb59d62b1	-1.1726135e-06
186	0x364c6ace	3.0460537e-06
187	0xb6e4c02f	-6.8173026e-06
188	0xb5bb52ad	-1.3956648e-06
189	0xb684e66e	-3.960732e-06
190	0x3780a0ce	1.533367e-05
191	0x36c9f99b	6.0193247e-06
192	0xb644ff86	-2.935501e-06
193	0x376cde73	1.4118489e-05
194	0x367f1a4b	3.8013266e-06
195	0xb6ca97d2	-6.0377433e-06
196	0x374f99b4	1.2373948e-05
197	0xb76f4926	-1.4262541e-05
198	0xb6d67302	-6.3910857e-06
199	0xb75db9bd	-1.3215872e-05
200	0xb6dc0277	-6.556798e-06
201	0xb6142de9	-2.2080442e-06
202	0x3657e4e2	3.2170724e-06
203	0xb70ddb49	-8.455311e-06
204	0x36f27a51	7.2264015e-06
205	0xb7435e2e	-1.1644834e-05
206	0x37395b78	1.1048156e-05
207	0x3778ffc4	1.4841502e-05
208	0xb6fc12b1	-7.512361e-06
209	0xb7111bfc	-8.649189e-06
210	0x3719bfba	9.1641505e-06
211	0xb604b82d	-1.9776737e-06
212	0x37060ab2	7.989513e-06
213	0x376af848	1.4005294e-05
214	0x36243f85	2.4474878e-06
215	0x3686c27c	4.016152e-06
216	0xb649863a	-3.0029464e-06
217	0xb7822fd3	-1.5519478e-05
218	0xb693d2bd	-4.4054746e-06
219	0xb73651f0	-1.0867123e-05
220	0xb7227bbf	-9.684764e-06
221	0x3495536b	2.7814107e-07
222	0xb61f3ee7	-2.372946e-06
223	0x34d4bd18	3.962566e-07
224	0xb6f71650	-7.363771e-06
225	0x3648a8e6	2.9900634e-06
226	0xb64acd6b	-3.0219915e-06
227	0x332edac7	4.071151e-08
228	0x36d2b712	6.2798e-06
229	0x3715484d	8.897926e-06
230	0xb65f1c8f	-3.3246213e-06
231	0xb5b033dc	-1.3128115e-06
232	0xb619026d	-2.2800189e-06
233	0xb5f91655	-1.8558445e-06
234	0xb693e938	-4.4080916e-06
235	0x3588f08d	1.0202799e-06
236	0x353b719f	6.982827e-07
237	0x37030ce9	7.811214e-06
238	0x363fb18e	2.8564568e-06
239	0x367b8d66	3.748422e-06
240	0xb67be072	-3.753256e-06
241	0xb64b0c0b	-3.0256367e-06
242	0x333e2662	4.427273e-08
243	0xb68c0d9b	-4.173909e-06
244	0x363f63bb	2.8519269e-06
245	0x36790e26	3.7112127e-06
246	0x350fe1d0	5.360025e-07
247	0x3603dbda	1.9648492e-06
248	0x365f3759	3.3261806e-06
249	0x36d5cb0a	6.3715315e-06
250	0x3622cfbc	2.4260798e-06
251	0xb623bd10	-2.4398942e-06
252	0xb650435a	-3.103362e-06
253	0x372aa82b	1.0171944e-05
254	0xb6a35d7c	-4.8686616e-06
255	0xb6c8a739	-5.9799318e-06

exp_avg_sq f4 [80, 20]
0	0x322041e3	9.328207e-09
1	0x2fedf39d	4.3283147e-10
2	0x3045e4e0	7.1993433e-10
3	0x2f36b07f	1.6615508e-10
4	0x2f476ceb	1.813764e-10
5	0x314b9c14	2.9629108e-09
6	0x30d6d7fd	1.5631937e-09
7	0x30f148f9	1.7555798e-09
8	0x3159e3fc	3.170725e-09
9	0x319a71c1	4.494922e-09
10	0x31cde895	5.9927268e-09
11	0x315b9efa	3.1959062e-09
12	0x31778a77	3.6021939e-09
13	0x328a97bf	1.613432e-08
14	0x3090bfda	1.0531906e-09
15	0x316a144b	3.4063017e-09
16	0x2f4a1f65	1.8382947e-10
17	0x312cd942	2.515279e-09
18	0x3109f62e	2.007606e-09
19	0x32b4528a	2.0992292e-08
20	0x2d9ddc3e	1.794664e-11
21	0x2d91c328	1.6571258e-11
22	0x2dc273d3	2.2106683e-11
23	0x2e3bda2e	4.271266e-11
24	0x2c9a12d0	4.379032e-12
25	0x2e2f27af	3.982564e-11
26	0x2de56bc2	2.608214e-11
27	0x2dc965e2	2.28963e-11
28	0x2def6c36	2.721921e-11
29	0x2e83f564	6.0007804e-11
30	0x2e081f67	3.095071e-11
31	0x2d8dcef3	1.6121748e-11
32	0x2e4c2505	4.641711e-11
33	0x2e5c6c71	5.0118524e-11
34	0x2d53ab1c	1.2031955e-11
35	0x2e31d078	4.0430298e-11
36	0x2dd6fed3	2.4442148e-11
37	0x2d3d008c	1.0743528e-11
38	0x2d32aecb	1.015694e-11
39	0x2ea55ef6	7.5202e-11
40	0x2ed4932e	9.666788e-11
41	0x2e88e90a	6.22596e-11
42	0x30a72614	1.2161672e-09
43	0x309f3bc2	1.1585757e-09
44	0x2f825b80	2.3711877e-10
45	0x312c94ff	2.5113989e-09
46	0x2fa07903	2.9189814e-10
47	0x2feecb62	4.343646e-10
48	0x30435d84	7.107348e-10
49	0x316fb28e	3.4880574e-09
50	0x3013c1be	5.375361e-10
51	0x2f05db43	1.2174177e-10
52	0x3032c4fb	6.503595e-10
53	0x307ad560	9.1252694e-10
54	0x2f2f7b61	1.595999e-10
55	0x30a07010	1.1673382e-09
56	0x2f0dad66	1.2885479e-10
57	0x2f3f4bff	1.7398348e-10
58	0x2f7a3efd	2.2759745e-10
59	0x311c26d2	2.2723055e-09
60	0x2f993ff4	2.787598e-10
61	0x2f99658e	2.7902697e-10
62	0x302d0255	6.294035e-10
63	0x3026165a	6.042221e-10
64	0x2f8bd7a2	2.543717e-10
65	0x30f47c34	1.7788637e-09
66	0x2fe04549	4.0794593e-10
67	0x2fd4866a	3.8658082e-10
68	0x302fed15	6.4001543e-10
69	0x3111a8b1	2.1196167e-09
70	0x30806ff5	9.345046e-10
71	0x2fc0d5b1	3.5076433e-10
72	0x2fed8b8c	4.3209203e-10
73	0x3059dfcd	7.926218e-10
74	0x2f0ecbd9	1.2987246e-10
75	0x307411d6	8.879203e-10
76	0x306bb220	8.5745633e-10
77	0x3013ae51	5.3726007e-10
78	0x2fdfbb29	4.069645e-10
79	0x30bf3efa	1.3914978e-09
80	0x2e53f9ff	4.8197887e-11
81	0x2e9a07b6	7.004479e-11
82	0x2f2cf04a	1.5728677e-10
83	0x2f3ac0cb	1.6985095e-10
84	0x2fd04187	3.788154e-10
85	0x308439cb	9.62069e-10
86	0x2fab1189	3.1117178e-10
87	0x2ee1d847	1.0270234e-10
88	0x2f8bdb41	2.5439742e-10
89	0x30dd971d	1.6122815e-09
90	0x2fd271b0	3.8279557e-10
91	0x2f30b20e	1.6070364e-10
92	0x2fa1ee2f	2.945497e-10
93	0x2f60db4a	2.0450588e-10
94	0x2df76e87	2.8129733e-11
95	0x2ea89a20	7.6671336e-11
96	0x2f69d311	2.1266212e-10
97	0x305760ac	7.8353923e-10
98	0x2f19dab7	1.3992972e-10
99	0x2f6cf9cd	2.1552822e-10
100	0x2efe925a	1.157658e-10
101	0x2f5bd543	1.99937e-10
102	0x2f2d55f2	1.5764792e-10
103	0x2f85c56e	2.433284e-10
104	0x301721b6	5.4981386e-10
105	0x3099052d	1.1133686e-09
106	0x2febfc8d	4.29257e-10
107	0x2ff6f9df	4.4924683e-10
108	0x2ef660a5	1.12039523e-10
109	0x309b468f	1.1297788e-09
110	0x31335e62	2.6101579e-09
111	0x2fd75d01	3.9174355e-10
112	0x2f8ac094	2.523889e-10
113	0x30a7e818	1.2216814e-09
114	0x2f18c71b	1.3895056e-10
115	0x2f23a967	1.4884947e-10
116	0x30931e4f	1.0704272e-09
117	0x3128d209	2.4566609e-09
118	0x30406219	6.99886e-10
119	0x3088e203	9.959539e-10
120	0x2f980ed1	2.7659167e-10
121	0x2e577b03	4.8994597e-11
122	0x2fb01d14	3.2034875e-10
123	0x2f0b9d1d	1.2697794e-10
124	0x2ff5eac9	4.4732065e-10
125	0x308e2394	1.0341972e-09
126	0x30a8da75	1.2285698e-09
127	0x2f78f0a1	2.2640957e-10
128	0x30072967	4.917155e-10
129	0x30d46104	1.5452604e-09
130	0x2f8a1d05	2.5122673e-10
131	0x2e96e002	6.861002e-11
132	0x30880a29	9.89819e-10
133	0x30751003	8.9153235e-10
134	0x2ed8c73e	9.857935e-11
135	0x301886ab	5.548865e-10
136	0x2f28ba9d	1.534581e-10
137	0x303d55b2	6.887958e-10
138	0x2e8fbac0	6.5360606e-11
139	0x30836b23	9.561955e-10
140	0x316e1794	3.464696e-09
141	0x302abc2b	6.211304e-10
142	0x30e30b31	1.6519605e-09
143	0x3125ea32	2.4143785e-09
144	0x316096f4	3.2682097e-09
145	0x32272993	9.730132e-09
146	0x30f21a33	1.7615264e-09
147	0x32107bd8	8.410062e-09
148	0x317e7d55	3.7033108e-09
149	0x3230bfee	1.0288188e-08
150	0x305dba06	8.0663687e-10
151	0x2fc29467	3.539384e-10
152	0x3180e1cf	3.7509618e-09
153	0x30fc5609	1.8359866e-09
154	0x30074489	4.921011e-10
155	0x3101b663	1.8875645e-09
156	0x31ebcf7f	6.8629897e-09
157	0x30c6585b	1.4431508e-09
158	0x301b9335	5.6597865e-10
159	0x31dd5656	6.441762e-09
160	0x2f131ad4	1.3379103e-10
161	0x2e38701b	4.1936326e-11
162	0x2f9d1c6e	2.8578334e-10
163	0x2f9773a9	2.7548921e-10
164	0x2e8890f8	6.2103156e-11
165	0x302310e9	5.9323085e-10
166	0x2ec133a0	8.785794e-11
167	0x2ec7e12b	9.08947e-11
168	0x2f4ae494	1.8453e-10
169	0x2fcaafa0	3.6868375e-10
170	0x2f31ecf3	1.6182237e-10
171	0x2e9507e4	6.777137e-11
172	0x2e9c32de	7.1030945e-11
173	0x2f394e29	1.685342e-10
174	0x2ebc36cb	8.5589834e-11
175	0x300bea5e	5.090096e-10
176	0x2ef2896d	1.10292976e-10
177	0x2e9be37d	7.088994e-11
178	0x2f383b3b	1.6755745e-10
179	0x2fe900d3	4.238304e-10
180	0x2ead4f67	7.881234e-11
181	0x2fb4a882	3.286154e-10
182	0x2ffc9472	4.594401e-10
183	0x2f750061	2.2282755e-10
184	0x2f9460ea	2.6989905e-10
185	0x2f0d5f9a	1.285784e-10
186	0x2f126980	1.3316104e-10
187	0x2e926228	6.6567474e-11
188	0x2e910d54	6.596204e-11
189	0x2f8fe0c0	2.6171243e-10
190	0x30f58ca0	1.7866064e-09
191	0x3004f543	4.836986e-10
192	0x2f0e056b	1.291675e-10
193	0x30fc82dc	1.8372606e-09
194	0x2fd7313f	3.9143264e-10
195	0x309d7d03	1.1458784e-09
196	0x3084d67a	9.665222e-10
197	0x30b84a1f	1.3408828e-09
198	0x2fe34c47	4.1345258e-10
199	0x312bd9bf	2.500755e-09
200	0x308b3c9d	1.0130808e-09
201	0x30968b80	1.0953585e-09
202	0x30ccf06c	1.4911286e-09
203	0x30df05f6	1.622708e-09
204	0x310f7f17	2.088148e-09
205	0x3067ab31	8.428059e-10
206	0x30c28863	1.4154121e-09
207	0x305ab418	7.9563867e-10
208	0x3093b6f4	1.0747656e-09
209	0x31518438	3.048866e-09
210	0x32af525d	2.0410136e-08
211	0x31b3a3c7	5.228205e-09
212	0x31015563	1.8820507e-09
213	0x31e076dc	6.5327708e-09
214	0x315cd5c1	3.2135719e-09
215	0x318f5f6c	4.172696e-09
216	0x314259ac	2.8281688e-09
217	0x3281d2b6	1.5113397e-08
218	0x31793f6a	3.6270316e-09
219	0x32966c63	1.7511587e-08
220	0x318afe6c	4.045253e-09
221	0x30ab71b0	1.24742e-09
222	0x30635165	8.269779e-10
223	0x301525c3	5.4259547e-10
224	0x2faa510a	3.0980402e-10
225	0x30cd442a	1.4935087e-09
226	0x306cf111	8.6198876e-10
227	0x2faee2a0	3.1811442e-10
228	0x3138329f	2.6804299e-09
229	0x30cb330c	1.4784702e-09
230	0x31c3aaad	5.6946505e-09
231	0x31ac1f0e	5.0093893e-09
232	0x30a646eb	1.2098246e-09
233	0x322c8ace	1.0043278e-08
234	0x30ebbbf9	1.7151925e-09
235	0x31cad2c3	5.9029346e-09
236	0x30c06240	1.3997763e-09
237	0x319c65fd	4.5517923e-09
238	0x31402803	2.7962421e-09
239	0x32969446	1.7529725e-08
240	0x2f6fa828	2.1796664e-10
241	0x2f223df1	1.475582e-10
242	0x2fe855a0	4.2261394e-10
243	0x2f6a2f60	2.1299007e-10
244	0x2f51d9bf	1.9085798e-10
245	0x30907f87	1.0513624e-09
246	0x2fcdbc26	3.742297e-10
247	0x2fe86549	4.2272522e-10
248	0x2f961dde	2.7306063e-10
249	0x30e85d9b	1.6906826e-09
250	0x3018766b	5.546556e-10
251	0x2f3107ca	1.6100823e-10
252	0x30a9c83f	1.2353282e-09
253	0x3113e158	2.1519408e-09
254	0x2ea57152	7.523461e-11
255	0x301e11ed	5.750554e-10

exp_avg f4 [80]
0	0x369cbf09	4.6714017e-06
1	0xb6cf18ce	-6.1719684e-06
2	0x37425b01	1.158449e-05
3	0x3782872e	1.5560156e-05
4	0x37b8d156	2.2031989e-05
5	0x383a60f2	4.4436143e-05
6	0x37a93119	2.0169233e-05
7	0xb8a77812	-7.9855454e-05
8	0xb7829cf4	-1.5570295e-05
9	0xb872c4f3	-5.788072e-05
10	0xb813dede	-3.5255092e-05
11	0x371551d8	8.900148e-06
12	0xb789080d	-1.6335422e-05
13	0x3846fc40	4.7441805e-05
14	0xb646da96	-2.9631533e-06
15	0x366ea0cd	3.5558362e-06
16	0xb8649adb	-5.4503656e-05
17	0x38467264	4.7313413e-05
18	0xb7b217cc	-2.1230335e-05
19	0x384eea2a	4.933231e-05
20	0xb7a58139	-1.9729707e-05
21	0xb50772f1	-5.045868e-07
22	0x36625231	3.3724466e-06
23	0xb6394b6a	-2.7611045e-06
24	0x380eee0f	3.4077148e-05
25	0x384db897	4.904772e-05
26	0x37c19614	2.3077278e-05
27	0xb8fb88f6	-0.000119941236
28	0xb6844289	-3.9416523e-06
29	0xb817d389	-3.6198213e-05
30	0xb855bbd4	-5.0958086e-05
31	0xb7471c47	-1.1867908e-05
32	0xb6c849e2	-5.9690656e-06
33	0x38387cb5	4.398516e-05
34	0xb5bbeac9	-1.4000917e-06
35	0xb62fa7d6	-2.6174725e-06
36	0xb85c0c0e	-5.2463314e-05
37	0x38531965	5.032997e-05
38	0xb7c5a9ec	-2.3563356e-05
39	0x38180f77	3.6254027e-05
40	0x3a295c6c	0.00064606103
41	0xb741a00e	-1.1540962e-05
42	0x39040a39	0.00012592309
43	0x395dfa86	0.0002116953
44	0xb8f91f58	-0.000118790835
45	0xb8c4dcd8	-9.387144e-05
46	0xb9d6022d	-0.00040818882
47	0xbaab1e54	-0.0013055303
48	0xb9d5efe4	-0.00040805258
49	0xb9a0931e	-0.0003062719
50	0xb936d884	-0.00017437531
51	0xb9de8bea	-0.00042447384
52	0xb9e00349	-0.00042727057
53	0xb91cd950	-0.00014958275
54	0xb91841aa	-0.00014520311
55	0x38ee60c6	0.0001136675
56	0x39349023	0.00017219833
57	0x398555b1	0.00025431582
58	0xb82afb66	-4.076529e-05
59	0x39abb535	0.0003275067
60	0xb70c408d	-8.35968e-06
61	0xb6804734	-3.8229864e-06
62	0x3752ef80	1.2572738e-05
63	0xb69b50c6	-4.6287632e-06
64	0x383a8735	4.4471777e-05
65	0x38ce2207	9.8291835e-05
66	0x3817acb4	3.6162048e-05
67	0xb8a21f89	-7.730636e-05
68	0xb7192cf7	-9.12998e-06
69	0xb84f753a	-4.946182e-05
70	0xb789ac19	-1.6411812e-05
71	0x3701cb23	7.736296e-06
72	0xb7e81b2e	-2.7669212e-05
73	0x38b44050	8.595048e-05
74	0xb6c4a252	-5.8601518e-06
75	0xb7631519	-1.35351665e-05
76	0xb8a3a428	-7.803022e-05
77	0x38c9433a	9.596949e-05
78	0xb78cbaa0	-1.6776205e-05
79	0x3887acf1	6.4695145e-05

exp_avg_sq f4 [80]
0	0x333f63d3	4.4561443e-08
1	0x2fb55c7e	3.2989428e-10
2	0x32537874	1.2309204e-08
3	0x323fe15f	1.1168907e-08
4	0x31006163	1.868181e-09
5	0x31ed7d1e	6.911832e-09
6	0x31a6c358	4.853444e-09
7	0x32584265	1.2587951e-08
8	0x315d020a	3.2160892e-09
9	0x334d7d13	4.7844036e-08
10	0x337f6e5f	5.9472196e-08
11	0x3399df62	7.165251e-08
12	0x324e2475	1.19990675e-08
13	0x330e45ab	3.3125314e-08
14	0x30183eb5	5.538639e-10
15	0x32baf25c	2.1763462e-08
16	0x3341dba3	4.5136073e-08
17	0x33ac3aff	8.0201055e-08
18	0x31f422fd	7.1053123e-09
19	0x33397f3a	4.318938e-08
20	0x325d9e2e	1.2899859e-08
21	0x2fecc577	4.3068457e-10
22	0x32141e3c	8.621608e-09
23	0x3223d526	9.536313e-09
24	0x31a44e99	4.7819637e-09
25	0x31a7c450	4.882658e-09
26	0x31f0d8a8	7.0095503e-09
27	0x331317ca	3.424774e-08
28	0x31bf4aeb	5.567349e-09
29	0x33100f71	3.3541657e-08
30	0x34804244	2.3890072e-07
31	0x334f59bb	4.8277553e-08
32	0x3288faab	1.5946474e-08
33	0x339c33ad	7.273716e-08
34	0x30498dd5	7.332493e-10
35	0x3294a8ac	1.730617e-08
36	0x335f1240	5.1937832e-08
37	0x33ad7b8b	8.0784126e-08
38	0x323aa6b0	1.0864525e-08
39	0x32ec8867	2.7536045e-08
40	0x370236dc	7.761377e-06
41	0x336c9df0	5.5091675e-08
42	0x34399576	1.7283841e-07
43	0x353d76bb	7.058076e-07
44	0x35926c3c	1.0909348e-06
45	0x359c71f7	1.1656074e-06
46	0x367ce88c	3.7686286e-06
47	0x37f900c4	2.968347e-05
48	0x3699cc46	4.583536e-06
49	0x34d4e9e2	3.965825e-07
50	0x368702fc	4.023661e-06
51	0x3795f624	1.7876802e-05
52	0x3696c9a1	4.493821e-06
53	0x345943da	2.0234384e-07
54	0x343a8392	1.7370465e-07
55	0x356de7bb	8.862659e-07
56	0x3573bbae	9.0797664e-07
57	0x3593ce32	1.1012364e-06
58	0x3635ee91	2.7109966e-06
59	0x35b038ba	1.3129531e-06
60	0x3306173d	3.122044e-08
61	0x30799052	9.0790764e-10
62	0x32c918d4	2.341077e-08
63	0x31a5f1b8	4.8296123e-09
64	0x318ba75d	4.0644594e-09
65	0x344522cf	1.8359718e-07
66	0x32ce399f	2.400776e-08
67	0x3283a2fc	1.5324524e-08
68	0x32018f89	7.541424e-09
69	0x33943acb	6.9024814e-08
70	0x330c3aca	3.264976e-08
71	0x32c019fa	2.2363555e-08
72	0x3355d74a	4.978873e-08
73	0x34125c85	1.3630968e-07
74	0x309e0a1a	1.1498884e-09
75	0x32a3de57	1.9076806e-08
76	0x3387bb69	6.320517e-08
77	0x34976b29	2.820391e-07
78	0x3199c3bd	4.475139e-09
79	0x33b63544	8.4847244e-08

exp_avg f4 [80]
0	0x369cbf09	4.6714017e-06
1	0xb6cf18c4	-6.171964e-06
2	0x37425aff	1.1584488e-05
3	0x3782871d	1.5560125e-05
4	0x37b8d154	2.2031985e-05
5	0x383a60f2	4.4436143e-05
6	0x37a93113	2.0169222e-05
7	0xb8a77813	-7.985546e-05
8	0xb7829cf6	-1.5570298e-05
9	0xb872c4f4	-5.7880723e-05
10	0xb813dedf	-3.5255096e-05
11	0x371551d9	8.900149e-06
12	0xb7890810	-1.6335427e-05
13	0x3846fc3f	4.74418e-05
14	0xb646da97	-2.9631535e-06
15	0x366ea0c9	3.5558353e-06
16	0xb8649adc	-5.450366e-05
17	0x38467265	4.7313417e-05
18	0xb7b217cb	-2.1230333e-05
19	0x384eea2b	4.9332313e-05
20	0xb7a5813c	-1.9729712e-05
21	0xb50772c1	-5.045841e-07
22	0x36625237	3.372448e-06
23	0xb6394b4a	-2.7610972e-06
24	0x380eee10	3.407715e-05
25	0x384db895	4.9047714e-05
26	0x37c1960e	2.3077268e-05
27	0xb8fb88f7	-0.00011994124
28	0xb684427a	-3.9416454e-06
29	0xb817d389	-3.6198213e-05
30	0xb855bbd4	-5.0958086e-05
31	0xb7471c47	-1.1867908e-05
32	0xb6c849e2	-5.9690656e-06
33	0x38387cb9	4.3985176e-05
34	0xb5bbead4	-1.400093e-06
35	0xb62fa7da	-2.6174735e-06
36	0xb85c0c0e	-5.2463314e-05
37	0x38531967	5.0329978e-05
38	0xb7c5a9ea	-2.3563352e-05
39	0x38180f78	3.625403e-05
40	0x3a295c6b	0.000646061
41	0xb741a002	-1.1540951e-05
42	0x39040a3a	0.0001259231
43	0x395dfa86	0.0002116953
44	0xb8f91f58	-0.000118790835
45	0xb8c4dcda	-9.387145e-05
46	0xb9d6022d	-0.00040818882
47	0xbaab1e53	-0.0013055302
48	0xb9d5efe5	-0.0004080526
49	0xb9a0931e	-0.0003062719
50	0xb936d886	-0.00017437534
51	0xb9de8beb	-0.00042447387
52	0xb9e00348	-0.00042727054
53	0xb91cd952	-0.00014958277
54	0xb91841ac	-0.00014520314
55	0x38ee60c5	0.00011366749
56	0x39349024	0.00017219834
57	0x398555b1	0.00025431582
58	0xb82afb65	-4.0765288e-05
59	0x39abb535	0.0003275067
60	0xb70c4089	-8.359676e-06
61	0xb680473d	-3.8229905e-06
62	0x3752ef74	1.2572727e-05
63	0xb69b50c7	-4.6287637e-06
64	0x383a8735	4.4471777e-05
65	0x38ce2206	9.829183e-05
66	0x3817acb3	3.6162044e-05
67	0xb8a21f87	-7.7306344e-05
68	0xb7192d03	-9.129991e-06
69	0xb84f753b	-4.9461825e-05
70	0xb789ac1b	-1.6411816e-05
71	0x3701cb23	7.736296e-06
72	0xb7e81b33	-2.766922e-05
73	0x38b44051	8.595049e-05
74	0xb6c4a252	-5.8601518e-06
75	0xb763151a	-1.3535167e-05
76	0xb8a3a428	-7.803022e-05
77	0x38c9433b	9.5969495e-05
78	0xb78cbaa1	-1.6776206e-05
79	0x3887acf2	6.469515e-05

exp_avg_sq f4 [80]
0	0x333f63d3	4.4561443e-08
1	0x2fb55c7e	3.2989428e-10
2	0x32537875	1.2309205e-08
3	0x323fe15f	1.1168907e-08
4	0x31006163	1.868181e-09
5	0x31ed7d20	6.911833e-09
6	0x31a6c358	4.853444e-09
7	0x32584266	1.2587952e-08
8	0x315d020b	3.2160894e-09
9	0x334d7d14	4.784404e-08
10	0x337f6e60	5.94722e-08
11	0x3399df62	7.165251e-08
12	0x324e2477	1.1999069e-08
13	0x330e45ab	3.3125314e-08
14	0x30183eb6	5.5386395e-10
15	0x32baf25c	2.1763462e-08
16	0x3341dba3	4.5136073e-08
17	0x33ac3aff	8.0201055e-08
18	0x31f422fb	7.1053115e-09
19	0x33397f3a	4.318938e-08
20	0x325d9e2f	1.289986e-08
21	0x2fecc57a	4.3068465e-10
22	0x32141e3c	8.621608e-09
23	0x3223d525	9.536312e-09
24	0x31a44e9b	4.7819646e-09
25	0x31a7c450	4.882658e-09
26	0x31f0d8a5	7.009549e-09
27	0x331317ca	3.424774e-08
28	0x31bf4aec	5.5673492e-09
29	0x33100f71	3.3541657e-08
30	0x34804242	2.3890067e-07
31	0x334f59ba	4.827755e-08
32	0x3288faab	1.5946474e-08
33	0x339c33ad	7.273716e-08
34	0x30498dd7	7.332494e-10
35	0x3294a8ac	1.730617e-08
36	0x335f1240	5.1937832e-08
37	0x33ad7b8a	8.078412e-08
38	0x323aa6af	1.0864524e-08
39	0x32ec8869	2.7536048e-08
40	0x370236dd	7.761378e-06
41	0x336c9df0	5.5091675e-08
42	0x34399573	1.7283837e-07
43	0x353d76bb	7.058076e-07
44	0x35926c3a	1.0909346e-06
45	0x359c71f6	1.1656073e-06
46	0x367ce88c	3.7686286e-06
47	0x37f900c2	2.9683466e-05
48	0x3699cc46	4.583536e-06
49	0x34d4e9e0	3.9658244e-07
50	0x368702fc	4.023661e-06
51	0x3795f624	1.7876802e-05
52	0x3696c9a1	4.493821e-06
53	0x345943dc	2.0234387e-07
54	0x343a8392	1.7370465e-07
55	0x356de7bc	8.86266e-07
56	0x3573bbad	9.079766e-07
57	0x3593ce32	1.1012364e-06
58	0x3635ee91	2.7109966e-06
59	0x35b038ba	1.3129531e-06
60	0x3306173d	3.122044e-08
61	0x30799050	9.079075e-10
62	0x32c918d4	2.341077e-08
63	0x31a5f1b9	4.8296127e-09
64	0x318ba75f	4.0644603e-09
65	0x344522cd	1.8359715e-07
66	0x32ce399f	2.400776e-08
67	0x3283a2fc	1.5324524e-08
68	0x32018f8a	7.541425e-09
69	0x33943acb	6.9024814e-08
70	0x330c3aca	3.264976e-08
71	0x32c019fb	2.2363556e-08
72	0x3355d749	4.9788728e-08
73	0x34125c85	1.3630968e-07
74	0x309e0a1b	1.1498885e-09
75	0x32a3de56	1.9076804e-08
76	0x3387bb6a	6.320518e-08
77	0x34976b29	2.820391e-07
78	0x3199c3bb	4.475138e-09
79	0x33b63543	8.484724e-08

exp_avg f4 [80, 20]
0	0xb7015f2f	-7.711161e-06
1	0x37306594	1.0514068e-05
2	0xb6e57f23	-6.8395325e-06
3	0xb40affde	-1.2945335e-07
4	0xb6ce8221	-6.1544274e-06
5	0x374a2a96	1.2050054e-05
6	0x35c023d9	1.4315548e-06
7	0x370d9b83	8.440463e-06
8	0x35c91432	1.4981545e-06
9	0x375b5a31	1.30744165e-05
10	0xb7d00ffd	-2.4802977e-05
11	0xb692a964	-4.3708587e-06
12	0x368e7584	4.2456104e-06
13	0xb7a32261	-1.9447123e-05
14	0xb6ef7e04	-7.137425e-06
15	0x374dbec1	1.22633655e-05
16	0xb7b2dfc7	-2.1323458e-05
17	0x378ef8ae	1.704352e-05
18	0x3743990b	1.1658539e-05
19	0x37a4771c	1.9605788e-05
20	0xb7351184	-1.0792519e-05
21	0x3609d1c0	2.0536681e-06
22	0xb560deed	-8.37709e-07
23	0x361fc24b	2.380594e-06
24	0xb71fb530	-9.5193245e-06
25	0x3798ba12	1.8206458e-05
26	0xb76448b1	-1.3606784e-05
27	0x3750a605	1.2436421e-05
28	0x37169c24	8.977051e-06
29	0x37456f15	1.1767978e-05
30	0xb7e0df22	-2.6806785e-05
31	0xb61f882a	-2.3772104e-06
32	0xb6d49bd4	-6.336233e-06
33	0xb7066d1b	-8.0124255e-06
34	0xb63f2e6c	-2.848824e-06
35	0xb61e05b0	-2.3547145e-06
36	0xb79b04a5	-1.8479603e-05
37	0x37dccb25	2.632064e-05
38	0x373dad86	1.1305679e-05
39	0x37184b91	9.0775e-06
40	0xb580b3e4	-9.589098e-07
41	0x366aac08	3.4968853e-06
42	0xb6601f83	-3.3396943e-06
43	0xb66de34d	-3.5448058e-06
44	0xb6da8a17	-6.512982e-06
45	0x364cad01	3.049907e-06
46	0xb698c649	-4.5530364e-06
47	0x363169d4	2.6436655e-06
48	0x35ac560e	1.2840044e-06
49	0x360f0d3b	2.1316362e-06
50	0xb6d335a6	-6.2945355e-06
51	0x35f7fb06	1.8475992e-06
52	0xb63983b3	-2.7643807e-06
53	0x35ab6093	1.27686e-06
54	0x35eef575	1.7803819e-06
55	0xb4cfab4e	-3.8681395e-07
56	0xb738d5cd	-1.1017034e-05
57	0x36967060	4.4834305e-06
58	0x36dbda8b	6.5521504e-06
59	0xb6010083	-1.9222796e-06
60	0xb6829e75	-3.8927487e-06
61	0x35c1d4a4	1.4441507e-06
62	0xb4c5d55c	-3.684935e-07
63	0xb4e2250f	-4.2122744e-07
64	0xb6a7c345	-4.99972e-06
65	0x36e99263	6.960983e-06
66	0xb6fcb702	-7.53149e-06
67	0x369ece16	4.7327585e-06
68	0x36547106	3.165625e-06
69	0x37141928	8.827345e-06
70	0xb73726bd	-1.0916669e-05
71	0xb681c70c	-3.8676717e-06
72	0xb605a918	-1.991697e-06
73	0xb6c72f5c	-5.9361755e-06
74	0xb5655cc3	-8.5444134e-07
75	0x35bd8b63	1.4122164e-06
76	0xb72c925b	-1.0286075e-05
77	0x37471c24	1.1867876e-05
78	0x36d42a3b	6.3230086e-06
79	0x36cb5eca	6.0609063e-06
80	0x3631e6ee	2.6509474e-06
81	0x36de050c	6.616703e-06
82	0xb5e3e803	-1.6980342e-06
83	0xb745d36d	-1.1791341e-05
84	0xb7147ba4	-8.850275e-06
85	0xb70266f5	-7.772575e-06
86	0x36df263f	6.6503703e-06
87	0xb5fa9d3f	-1.8672216e-06
88	0x33e4ee25	1.06603956e-07
89	0x3782d039	1.5594169e-05
90	0x36d1337f	6.2346803e-06
91	0xb73f002e	-1.1384529e-05
92	0x361cf957	2.3390946e-06
93	0xb68ece41	-4.255941e-06
94	0xb6a3eae5	-4.885124e-06
95	0x3721f6f4	9.653846e-06
96	0x33b5a9d1	8.459359e-08
97	0x35ef2e0f	1.7820292e-06
98	0x359ed69f	1.183438e-06
99	0x36fc5cc6	7.5209855e-06
100	0xb53568ca	-6.758024e-07
101	0x3590abe1	1.0778859e-06
102	0x3602a400	1.946697e-06
103	0xb6da1d86	-6.5003433e-06
104	0x34aaaf01	3.17923e-07
105	0xb5dfe4ab	-1.6681346e-06
106	0x352339eb	6.0806514e-07
107	0x36bb017a	5.573206e-06
108	0xb4dfc737	-4.1681935e-07
109	0x3603375f	1.9552751e-06
110	0x36424960	2.8950963e-06
111	0x34ec34c0	4.3996806e-07
112	0x33efb022	1.1161343e-07
113	0x36bacc25	5.5669975e-06
114	0x341680a1	1.4016634e-07
115	0x35d9587b	1.6193511e-06
116	0xb6122f70	-2.1783308e-06
117	0xb67e6dc8	-3.791285e-06
118	0xb515aeb7	-5.576107e-07
119	0xb68467df	-3.9459987e-06
120	0xb73625f4	-1.0856882e-05
121	0x361ce042	2.3376347e-06
122	0xb4fb415f	-4.6799957e-07
123	0x366a6a8c	3.4930736e-06
124	0xb7194d56	-9.137517e-06
125	0x379b1765	1.8488334e-05
126	0xb75d0f89	-1.3176244e-05
127	0x373b07fd	1.11479285e-05
128	0x370b1dbd	8.29197e-06
129	0x3776c967	1.4709635e-05
130	0xb7f7e834	-2.9552823e-05
131	0xb6457452	-2.9422995e-06
132	0xb70e764e	-8.4914045e-06
133	0xb6a22870	-4.8326838e-06
134	0xb661fb1e	-3.3673782e-06
135	0xb611bb92	-2.1715864e-06
136	0xb7a40d24	-1.9556443e-05
137	0x37c26eba	2.3178163e-05
138	0x371c0611	9.299737e-06
139	0x36cb7c38	6.0643324e-06
140	0x36e2ee92	6.763098e-06
141	0xb702f244	-7.805011e-06
142	0x36f74b3f	7.3699334e-06
143	0xb6949dbd	-4.429107e-06
144	0x36ef9938	7.140592e-06
145	0x347f38b0	2.3769348e-07
146	0x358dfeb3	1.0579446e-06
147	0xb6dcdcda	-6.5822214e-06
148	0x35ee0b09	1.7735593e-06
149	0xb4d84908	-4.0286272e-07
150	0x37a297eb	1.9382647e-05
151	0x35eacf2f	1.7494657e-06
152	0x3633f0ff	2.6813357e-06
153	0x372aec07	1.0187744e-05
154	0x351aa6a0	5.761194e-07
155	0xb7219fea	-9.633581e-06
156	0x37485733	1.1941232e-05
157	0xb781156e	-1.5387977e-05
158	0xb66713a5	-3.4433117e-06
159	0xb755bf3a	-1.2740313e-05
160	0xb5999a58	-1.1444308e-06
161	0xb5bbf01f	-1.400247e-06
162	0x3605edce	1.9956965e-06
163	0xb6569508	-3.1975233e-06
164	0x3612d655	2.1880453e-06
165	0xb68d7215	-4.2154084e-06
166	0x3611b3fb	2.1711446e-06
167	0x35282582	6.263946e-07
168	0x3601a97d	1.9321153e-06
169	0x365a1ff2	3.2503126e-06
170	0x36ed2460	7.067385e-06
171	0x355072b5	7.765296e-07
172	0x34e2a4fc	4.2215822e-07
173	0x370e9d2d	8.500455e-06
174	0xb5541937	-7.9012847e-07
175	0xb579f4ad	-9.311578e-07
176	0x364260e7	2.8964657e-06
177	0xb66380f2	-3.3900692e-06
178	0x36652e89	3.4150746e-06
179	0xb6a9df85	-5.0626136e-06
180	0xb7448c0b	-1.1715117e-05
181	0xb718bbc9	-9.103628e-06
182	0x370835b5	8.118736e-06
183	0x35bdf066	1.4151562e-06
184	0xb625b725	-2.469352e-06
185	0xb31c1ded	-3.6348798e-08
186	0xb75f263b	-1.3300737e-05
187	0x3742e738	1.1617136e-05
188	0x3726da39	9.94518e-06
189	0xb7185e24	-9.081825e-06
190	0x37950c84	1.7768012e-05
191	0x3734d679	1.0778772e-05
192	0xb651f1bd	-3.1284137e-06
193	0x379fd965	1.905551e-05
194	0x36ebeae8	7.0308924e-06
195	0xb7705807	-1.432561e-05
196	0xb5fbd47b	-1.8762797e-06
197	0xb6c1780f	-5.765825e-06
198	0xb6035c92	-1.9574404e-06
199	0xb7e7f2f5	-2.7650482e-05
200	0xb78ced6e	-1.6799862e-05
201	0x358c3ea1	1.044904e-06
202	0xb5bb6f80	-1.3965036e-06
203	0x3584fffe	9.90927e-07
204	0xb6acf218	-5.154183e-06
205	0x375d2b3b	1.3182692e-05
206	0xb6e5e637	-6.8515324e-06
207	0x37afd373	2.096009e-05
208	0x371c8da6	9.331305e-06
209	0xb60c6af9	-2.0923892e-06
210	0xb6d6229d	-6.3817265e-06
211	0x37468330	1.1832264e-05
212	0xb4ba3f97	-3.4691467e-07
213	0xb62731c8	-2.4913916e-06
214	0x3644b33a	2.93106e-06
215	0xb654813e	-3.166569e-06
216	0xb7dafd00	-2.6105437e-05
217	0x36d1fa4b	6.2578233e-06
218	0x36893b45	4.089818e-06
219	0xb7014836	-7.705812e-06
220	0x35ebc8e8	1.7567336e-06
221	0xb64764e6	-2.9712041e-06
222	0x36ae26f4	5.190139e-06
223	0xb5686ec2	-8.658791e-07
224	0x3591a941	1.0852601e-06
225	0x35b03336	1.3127926e-06
226	0xb6b44ea0	-5.373571e-06
227	0x36cb642f	6.0615344e-06
228	0x360f5680	2.135901e-06
229	0x35473f1f	7.422513e-07
230	0x36655b36	3.417675e-06
231	0xb6575991	-3.208963e-06
232	0xb68c2889	-4.177044e-06
233	0x374d65b7	1.22426345e-05
234	0x34c9ff98	3.7625136e-07
235	0xb6f8a779	-7.4104723e-06
236	0xb6940fe5	-4.412594e-06
237	0x3616e16c	2.2482955e-06
238	0x36d4b233	6.3388375e-06
239	0xb70692fa	-8.021243e-06
240	0xb3f46b1a	-1.1381617e-07
241	0x37627edf	1.3500189e-05
242	0xb62b37a9	-2.5513384e-06
243	0xb6d6f2bf	-6.4059564e-06
244	0xb51673f9	-5.6048117e-07
245	0x36d04d51	6.207884e-06
246	0x36fb9c7a	7.498599e-06
247	0x34aaf007	3.183961e-07
248	0xb5241f4a	-6.114029e-07
249	0x37adb855	2.0709043e-05
250	0xb78db9c4	-1.6895014e-05
251	0xb769d308	-1.3937017e-05
252	0x3616ec5f	2.2489328e-06
253	0xb6dbf3bd	-6.5550835e-06
254	0xb7557c83	-1.27247795e-05
255	0x375114ec	1.2462242e-05
